Assets/Scenes/ML/AICharacter.onnx (onnx, 81298 bytes, 7 tensors)

network_body._body_endoder.seq_layers.0.weight f4 [128, 10]
-0.2581732 0.092040025 -0.46417344 0.54945964 -0.17291676 0.013456308 -0.30964747 0.27492166
0.15274084 -0.30713567 0.08467027 0.27868614 -0.5694317 0.5848696 0.33025423 0.13849401
0.30659083 -0.39796826 0.5008417 0.011150123 0.26399502 -0.55972546 0.6231655 -0.33028367
-0.2135242 0.2730682 0.2629134 -0.4726861 0.04416702 0.014000838 -0.68019074 -0.1423529
-0.3100041 0.006398482 0.3691229 -0.010054711 -0.02765656 0.4946197 -0.2565466 -0.32636222
-0.23139375 -0.3080168 -0.28161258 -0.2576481 0.32713643 -0.06654645 0.22536321 -0.16881216
0.008233343 -0.03826019 0.22679928 0.34654373 -0.0004035628 -0.27119926 -0.1829514 0.058424965
-0.012697137 -0.18978462 -0.17150775 0.5120826 0.464982 -0.1348831 0.1073799 0.2659907
-0.35270196 0.058922544 -0.22491506 0.048383363 -0.24853486 0.44430247 -0.23797742 0.29942048
0.749878 0.046234373 -0.42328635 -0.2317391 -0.28824443 -0.3515289 -0.05461173 0.14533925
0.19890596 -0.3453187 -0.24617496 -0.57168394 -0.29590812 -0.54705125 0.35233736 0.0032256541
0.5271811 -0.4852083 -0.0548584 0.065153286 0.2354641 -0.00483457 0.4496557 0.28083992
-0.1652547 -0.32828334 -0.47810188 0.18744433 -0.44481844 0.112659834 0.37561423 -0.29517096
0.04287627 -0.14454363 0.031825256 0.2036555 -0.21600561 -0.26264566 -0.5301956 0.04592932
-0.15451558 0.29878896 -0.47705412 -0.05937314 -0.47087115 0.08026145 0.26737568 0.00060314086
-0.37811697 -0.38863963 0.17712407 -0.15581754 -0.32317156 0.4047544 -0.40741324 -0.103064805
0.42659852 0.3202033 -0.5460038 -0.35139227 0.10314046 0.3239561 -0.11389201 -0.1888753
-0.07977397 -0.096767604 -0.06259276 0.013020102 0.23289043 0.19546773 0.12608087 -0.12193645
0.2351655 0.01657383 -0.123035215 -0.39701247 0.35940632 -0.08347586 -0.36521685 -0.13382979
-0.035737734 0.45557842 -0.24812962 -0.39836657 -0.03934331 -0.20089632 -0.37242058 0.034362208
0.014652068 -0.59157723 -0.06396558 -0.3797933 -0.24002548 0.1567781 0.2196289 0.2110726
0.44784793 -0.36624172 -0.21784444 -0.42108485 -0.051286004 -0.037748996 -0.34487334 -0.20695116
-0.1812796 0.4313494 -0.53567713 -0.033111867 -0.3052648 0.004346043 0.28282014 0.08447381
0.105915025 -0.06866731 0.30692703 -0.21573901 -0.25224477 -0.13626656 -0.26846862 -0.3139468
-0.23169209 -0.40154216 0.20754024 -0.11737539 0.11132375 -0.7317149 0.28315967 -0.063625
-0.07695183 0.066103324 0.4516708 0.051522754 0.03853119 0.10720964 -0.48965192 -0.07074255
0.18445215 0.26941177 -0.15082033 0.5608884 0.10622224 -0.68367934 0.2901461 0.25248274
-0.08800238 -0.23995797 0.15666097 0.37017977 -0.40026966 0.1540657 -0.20679681 0.628656
0.0765647 0.25953212 0.19226953 -0.122249894 0.016692776 0.4400777 0.17231743 -0.36966425
-0.27035573 -0.30155733 -0.635843 -0.088158645 -0.15397376 -0.032885566 -0.14688323 -0.47918785
0.112082966 -0.21559726 -0.19285671 -0.5889373 0.17935842 -0.14990173 -0.2517159 -0.08276532
0.12115783 0.07566466 -0.46054098 0.2532505 -0.1408149 0.19109365 -0.091084756 -0.31669343
00000000: 472f 84be 7b7f bc3d 24a8 edbe 63a9 0c3f
00000010: 1711 31be d977 5c3c 1d8a 9ebe 88c2 8c3e
00000020: 1868 1c3e e340 9dbe 9b67 ad3d f3af 8e3e
00000030: 47c6 11bf 04ba 153f 1517 a93e 60d1 0d3e
00000040: 79f9 9c3e 7fc2 cbbe 2937 003f 01af 363c
00000050: 5b2a 873e 2b4a 0fbf c687 1f3f f11a a9be
00000060: 16a6 5abe 98cf 8b3e 969c 863e ea03 f2be
00000070: 7ae8 343d c563 653c fb20 2ebf f5c4 11be
00000080: dbb8 9ebe 5baa d13b adfd bc3e 84bc 24bc
00000090: 0390 e2bc cb3e fd3e 135a 83be f318 a7be
000000a0: 7cf2 6cbe 61b4 9dbe 862f 90be 74ea 83be
000000b0: 6d7e a73e 8149 88bd 9dc5 663e 18dd 2cbe
000000c0: 25e5 063c b8b6 1cbd 123e 683e 2e6e b13e
000000d0: 4895 d3b9 a1da 8abe 9d57 3bbe 044f 6f3d
000000e0: a707 50bc e656 42be ba9f 2fbe d817 033f
000000f0: 1f12 ee3e cc1e 0abe fee9 db3d ef2f 883e
00000100: 5a95 b4be c458 713d 2250 66be a22d 463d
00000110: ec7f 7ebe 9d7b e33e 5ab0 73be a44d 993e
00000120: 01f8 3f3f 4160 3d3d fdb8 d8be 044d 6dbe
00000130: c694 93be 99fb b3be 8db0 5fbd d0d3 143e
00000140: 01ae 4b3e 9dcd b0be 4a15 7cbe e159 12bf
00000150: 4581 97be 8d0b 0cbf 9065 b43e 7f65 533b
00000160: 57f5 063f 396d f8be 34b3 60bd 166f 853d
00000170: 801d 713e 506b 9ebb 4639 e63e 40ca 8f3e
00000180: 8738 29be c114 a8be c5c9 f4be 68f1 3f3e
00000190: 3ebf e3be 33ba e63d 8250 c03e a620 97be
000001a0: 079f 2f3d 3f03 14be 335b 023d 118b 503e
000001b0: 9330 5dbe 7e79 86be e6ba 07bf 6220 3c3d
000001c0: 5539 1ebe defa 983e 7040 f4be 4031 73bd
000001d0: 0616 f1be 1d60 a43d 77e5 883e 191c 1e3a
000001e0: 8c98 c1be c6fb c6be 0360 353e a28e 1fbe
000001f0: be76 a5be f83b cf3e 7898 d0be a413 d3bd
00000200: 1f6b da3e b0f1 a33e e8c6 0bbf b0e9 b3be
00000210: 4e3b d33d 93dd a53e 3740 e9bd 8768 41be
00000220: 8960 a3bd 182e c6bd a230 80bd 4452 553c
00000230: d47a 6e3e b128 483e 581b 013e d1b9 f9bd
00000240: 3acf 703e d7c5 873c e3f9 fbbd 3845 cbbe
00000250: 1b04 b83e 64f5 aabd b4fd babe ad0a 09be
00000260: bb61 12bd 9341 e93e b115 7ebe b4f6 cbbe
00000270: 7326 21bd c4b7 4dbe e9ad bebe 63bf 0c3d
00000280: 3a0f 703c 9b71 17bf 6300 83bd 4474 c2be
00000290: 3dc9 75be 708a 203e 66e6 603e 6a23 583e
000002a0: 534c e53e 0984 bbbe 9d12 5fbe 6f98 d7be
000002b0: 4611 52bd b19e 1abd 3d93 b0be 01eb 53be
000002c0: 5ca1 39be d4d9 dc3e 2322 09bf 4fa0 07bd
000002d0: ab4b 9cbe 4069 8e3b cdcd 903e 9b00 ad3d
000002e0: fae9 d83d 72a1 8cbd 8a25 9d3e b0ea 5cbe
000002f0: 3a26 81be 7689 0bbe b874 89be a3bd a0be
00000300: b140 6dbe ef96 cdbe 6e85 543e 8262 f0bd
00000310: b5fd e33d ab51 3bbf 4efa 903e d34d 82bd
00000320: ec98 9dbd 2e61 873d 6541 e73e 8609 533d
00000330: e2d2 1d3d ba90 db3d a8b3 fabe 78e1 90bd
00000340: 06e1 3c3e 57f0 893e a570 1abe 6296 0f3f
00000350: 0c8b d93d 9c05 2fbf 088e 943e 6b45 813e
00000360: 983a b4bd 8bb7 75be bc6b 203e 3488 bd3e
00000370: 25f0 ccbe 66c3 1d3e 8bc2 53be 9aef 203f
00000380: f4cd 9c3d 65e1 843e 4ee2 443e 275e fabd
00000390: 4abf 883c dd51 e13e fb73 303e a244 bdbe
000003a0: 116c 8abe b965 9abe 9bc6 22bf 858c b4bd
000003b0: 4cab 1dbe 04b3 06bd 8f68 16be 1c58 f5be
000003c0: c18b e53d 87c5 5cbe 3b7c 45be 98c4 16bf
000003d0: bca9 373e d77f 19be e8e0 80be dd80 a9bd
000003e0: 9921 f83d 13f6 9a3d 07cc ebbe 0daa 813e
000003f0: c831 10be 0eae 433e a58a babd a425 a2be

network_body._body_endoder.seq_layers.0.bias f4 [128]
0.09080384 -0.07375719 0.04300906 0.03697666 0.0070592957 0.03322644 0.07708137 0.032249898
0.06805629 0.08952329 0.0057572005 -0.005314472 -0.07829813 -0.024731604 -0.025726555 0.04728868
0.011392026 0.040658902 0.01564001 -0.04837382 -0.06892065 -0.016245462 -0.012132763 0.0014262575
-0.038987074 0.10188481 0.013564742 -0.03945677 0.02228429 0.034176685 -0.016617859 -0.0606782
-0.025947062 0.036244303 -0.011152896 0.047298815 0.013723939 -0.12501869 -0.0397784 0.03922421
-0.07649338 0.051214322 -0.081907764 -0.07024229 -0.052715354 0.06139876 -0.09860037 -0.07243488
-0.09324683 0.013617452 -0.021996351 -0.08540032 -0.09484683 -0.0714942 -0.046081234 -0.079371236
-0.08824217 0.05767257 0.019547286 -0.08212618 0.06364904 -0.10339175 -0.06862166 -0.020382425
0.056401473 0.118540525 0.1038537 -0.08944835 -0.018102987 0.0061707105 -0.085908145 0.029795974
0.0630676 -0.096822105 0.058752354 -0.03642579 0.008481557 -0.03647202 0.03088116 0.05554766
-0.02032036 -0.02173062 -0.013292186 0.003114298 0.020260686 -0.12946066 -0.009647256 0.049255554
0.024106022 0.05073544 0.013367166 -0.12975626 0.020719273 0.094777934 -0.0023745196 -0.12483496
0.043621495 -0.035915993 -0.07218807 0.059203155 -0.1672934 0.0073512984 -0.10598765 -0.019262718
-0.031236712 -0.057121497 0.0030150746 -0.06494965 0.053329956 0.032162815 0.10264104 -0.06989002
0.036249757 -0.021213619 0.002196004 -0.045721885 -0.048573427 -0.024559254 -0.034930903 -0.034732264
-0.032338917 0.05211765 -0.015086763 -0.122844964 0.028684199 0.015776208 -0.00610094 -0.11054206
00000000: 5df7 b93d 020e 97bd 452a 303d d774 173d
00000010: aa51 e73b 7318 083d d6dc 9d3d 7818 043d
00000020: 1961 8b3d fd57 b73d e6a6 bc3b 0625 aebb
00000030: c55a a0bd ef99 cabc 7fc0 d2bc c6b1 413d
00000040: 9fa5 3a3c f389 263d 7a1f 803c a023 46bd
00000050: 4526 8dbd 3415 85bc 7fc8 46bc 43f1 ba3a
00000060: e9b0 1fbd fca8 d03d a73e 5e3c 6c9d 21bd
00000070: 8b8d b63c dafc 0b3d 2d22 88bc b489 78bd
00000080: ef8e d4bc e874 143d a3ba 36bc 67bc 413d
00000090: 5fda 603c e604 00be adee 22bd 91a9 203d
000000a0: 90a8 9cbd 1cc6 513d 42bf a7bd 31db 8fbd
000000b0: 0eec 57bd 447d 7b3d feee c9bd bd58 94bd
000000c0: 32f8 bebd bc1b 5f3c b131 b4bc 5de6 aebd
000000d0: 0e3f c2bd 8d6b 92bd adbf 3cbd 638d a2bd
000000e0: 50b8 b4bd 133a 6c3d a121 a03c c531 a8bd
000000f0: 6e5a 823d 0ebf d3bd 8389 8cbd 0bf9 a6bc
00000100: 3b05 673d 60c5 f23d 40b1 d43d b230 b7bd
00000110: b74c 94bc ac33 ca3b 9cf0 afbd b016 f43c
00000120: 9629 813d ab4a c6bd 4fa6 703d 3633 15bd
00000130: 3af6 0a3c af63 15bd 7dfa fc3c f185 633d
00000140: e276 a6bc 6a04 b2bc 78c7 59bc 4019 4c3b
00000150: bdf9 a53c 5691 04be 860f 1ebc 31c0 493d
00000160: fe79 c53c f7cf 4f3d f501 5b3c d3de 04be
00000170: 77bb a93c ef1a c23d d49d 1bbb 79a9 ffbd
00000180: 74ac 323d a61c 13bd 57d7 93bd 027f 723d
00000190: f64e 2bbe 29e3 f03b 0e10 d9bd d9cc 9dbc
000001a0: 22e4 ffbc 3bf8 69bd 8f98 453b 5204 85bd
000001b0: 8370 5a3d 28bd 033d 7735 d23d 8022 8fbd
000001c0: a07a 143d 2fc8 adbc d5ea 0f3b df46 3bbd
000001d0: eef4 46bd 7d30 c9bc b513 0fbd 6b43 0ebd
000001e0: d075 04bd 5179 553d 782e 77bc 2496 fbbd
000001f0: 20fb ea3c 1b3d 813c 65ea c7bb e063 e2bd

network_body._body_endoder.seq_layers.2.weight f4 [128, 128]
0.028127138 -0.1172646 -0.029095892 -0.17408955 0.044717867 0.1463777 -0.068646684 0.005517685
-0.057662804 0.07616162 0.019337445 -0.051778708 0.16320954 -0.08376281 0.092672616 0.09253149
0.17814022 0.045700174 0.17185493 0.0966209 0.019105097 -0.015290656 -0.1512773 -0.21470836
0.072709665 0.07498602 -0.107231736 0.06472847 0.07789523 0.03688647 -0.047591195 0.16244142
-0.081697665 0.09649784 0.040475987 -0.14757904 0.08622522 -0.11883133 0.0589961 -0.033022087
-0.044843614 -0.10918465 -0.0026386206 -0.01772761 -0.18055837 -0.037528157 -0.039260127 0.07897122
-0.05664087 -0.0338466 0.05097174 0.05771187 -0.09222015 -0.035279054 0.050665855 -0.09065864
0.055799264 -0.12144503 0.08741281 -0.045485795 -0.0030048601 0.049828324 -0.25336325 -0.13028572
0.044995885 0.10426146 -0.11385321 -0.29911464 0.08308563 -0.03590637 -0.16649532 -0.03203601
-0.05006529 -0.042112112 -0.17104594 0.06512429 -0.08675341 0.08006547 0.07983697 -0.058144525
0.038955517 -0.20563868 -0.13974628 -0.048478775 -0.1721667 -0.20041826 -0.101317115 0.006422233
-0.058871325 0.1609586 -0.023199067 -0.14976683 -0.057535976 0.06583584 0.09826058 -0.025337728
-0.031131327 0.014828208 -0.06243511 -0.09900841 -0.10075497 -0.02188368 -0.0057657734 -0.122440524
0.1254772 0.16217613 0.047944393 -0.04179161 -0.14510329 -0.03191822 -0.13898651 -0.16755635
0.02022448 -0.051923472 0.04064861 0.12870656 0.0383322 -0.09706183 -0.07807405 0.020711597
-0.06008595 0.13694678 -0.0016257357 -0.08248315 -0.10183877 -0.013033715 0.04165294 -0.026270708
-0.013841172 -0.02958865 0.01695705 0.08134496 -0.014487538 -0.0047680936 -0.13691574 -0.073119596
-0.102635466 -0.053214397 0.008404053 -0.06730336 -0.22068763 -0.073003165 -0.07396459 0.10393511
0.020849908 0.039961625 -0.038271964 -0.08831883 -0.15893646 -0.049093746 0.11237958 0.0020014755
-0.09976427 0.020251112 0.035343114 0.15656921 -0.048970956 -0.050324947 -0.009091523 0.114425085
0.042059716 -0.14884001 0.0645378 -0.08108194 0.1171084 -0.09864338 0.038157303 -0.07058258
0.072434336 0.07832337 -0.12588468 -0.028882353 -0.09034088 -0.022612413 -0.031810097 -0.023724966
-0.082074255 -0.0010219486 -0.04992933 -0.15510431 0.038697544 -0.09937681 0.079225235 -0.15588644
-0.05737393 -0.046600766 0.020881189 0.026808001 0.0055959322 0.021063637 0.026588487 -0.04740696
-0.0015305596 -0.03566179 0.03714765 0.24430703 -0.30222565 0.026397886 -0.16964185 -0.14869049
-0.16515824 0.15060033 0.05255411 0.048151847 -0.05965698 -0.10485842 0.042309083 0.034613192
0.020547561 0.07800804 0.12064387 -0.17194448 0.032723013 -0.08825063 -0.10641805 -0.25492895
-0.121587634 -0.17937352 -0.1472939 0.088002354 -0.010912787 -0.0768922 -0.00485204 0.035626672
0.041738812 -0.023793481 -0.28774956 0.040827263 -0.11211336 0.026378304 0.012970953 0.12524766
0.18786637 -0.0706652 -0.02710692 -0.021398911 0.20390235 -0.1034924 0.15985258 0.026451597
-0.026238477 0.023661235 -0.11186445 -0.03599627 -0.06921324 -0.11751695 0.09873291 0.040248737
0.04446806 -0.033808414 -0.05483505 -0.12769067 0.08767905 0.07638113 0.092982344 -0.1536364
00000000: e26a e63c 6c28 f0bd 825a eebc 8844 32be
00000010: 152a 373d 09e4 153e a296 8cbd b2cd b43b
00000020: d52f 6cbd a0fa 9b3d 9069 9e3c e915 54bd
00000030: 6720 273e d68b abbd 24cb bd3d 2681 bd3d
00000040: 646a 363e 1b30 3b3d bdfa 2f3e 2ee1 c53d
00000050: 4b82 9c3c a985 7abc 70e8 1abe 82dc 5bbe
00000060: cee8 943d 4592 993d 509c dbbd 5c90 843d
00000070: 8987 9f3d 4416 173d fcee 42bd 0b57 263e
00000080: 1b51 a7bd a9a0 c53d 26ca 253d f61e 17be
00000090: d996 b03d d75d f3bd e5a5 713d 2b42 07bd
000000a0: f0ad 37bd 349c dfbd b5ec 2cbb 7e39 91bc
000000b0: 4be4 38be 20b7 19bd 3acf 20bd aabb a13d
000000c0: 4200 68bd bca2 0abd bec7 503d 4863 6c3d
000000d0: ebdd bcbd c580 10bd 0087 4f3d 3dab b9bd
000000e0: c58d 643d 2cb8 f8bd 7d05 b33d 504f 3abd
000000f0: 30ed 44bb c918 4c3d d4b8 81be 9f69 05be
00000100: 9b4d 383d 0887 d53d df2b e9bd 8e25 99be
00000110: cc28 aa3d 8f12 13bd c07d 2abe 3138 03bd
00000120: 4311 4dbd c07d 2cbd ab26 2fbe e25f 853d
00000130: c6ab b1bd 5df9 a33d 9181 a33d f428 6ebd
00000140: d28f 1f3d f292 52be a619 0fbe ae91 46bd
00000150: 784c 30be 723a 4dbe 597f cfbd 9871 d23b
00000160: 0f23 71bd 55d2 243e f80b bebc 7a5c 19be
00000170: d8aa 6bbd f1d4 863d d83c c93d 1191 cfbc
00000180: 2007 ffbc 03f2 723c f5bb 7fbd ecc4 cabd
00000190: 9f58 cebd 6745 b3bc d0ee bcbb 19c2 fabd
000001a0: 187d 003e 8011 263e 5761 443d ae2d 2bbd
000001b0: f595 14be aebc 02bd 7b52 0ebe e493 2bbe
000001c0: cfad a53c b5ad 54bd 287f 263d a7cb 033e
000001d0: 3a02 1d3d 5ac8 c6bd 4ae5 9fbd 5eab a93c
000001e0: af1c 76bd c73b 0c3e a316 d5ba edec a8bd
000001f0: d890 d0bd 5d8b 55bc 469c 2a3d ab35 d7bc
00000200: 15c6 62bc e663 f2bc 83e9 8a3c 3098 a63d
00000210: 235d 6dbc ab3d 9cbb a433 0cbe babf 95bd
00000220: 8b32 d2bd 57f7 59bd 27b1 093c 58d6 89bd
00000230: f0fb 61be af82 95bd bf7a 97bd eedb d43d
00000240: 6dcd aa3c cdae 233d 10c3 1cbd 81e0 b4bd
00000250: 3dc0 22be 8616 49bd 4427 e63d 302b 033b
00000260: 3651 ccbd a9e5 a53c f1c3 103d ae53 203e
00000270: c595 48bd 8821 4ebd 9cf4 14bc b357 ea3d
00000280: cf46 2c3d 8469 18be 652c 843d 4a0e a6bd
00000290: 87d6 ef3d 8a05 cabd d54a 1c3d 9a8d 90bd
000002a0: 7458 943d 0168 a03d eae7 00be af9a ecbc
000002b0: a404 b9bd ab3d b9bc 4e4b 02bd dc5a c2bc
000002c0: 8c16 a8bd e8f2 85ba b282 4cbd aad3 1ebe
000002d0: 5181 1e3d 1286 cbbd d740 a23d b2a0 1fbe
000002e0: ed00 6bbd 72e0 3ebd 070f ab3c 749c db3c
000002f0: 155e b73b a68d ac3c 19d0 d93c cd2d 42bd
00000300: 0f9d c8ba 1912 12bd 2228 183d 9f2b 7a3e
00000310: 52bd 9abe 6140 d83c 98b6 2dbe 5242 18be
00000320: 3e1f 29be f936 1a3e fa42 573d df3a 453d
00000330: e15a 74bd 03c0 d6bd 4a4c 2d3d 90c6 0d3d
00000340: 5c53 a83c aec2 9f3d 2214 f73d 3712 30be
00000350: 9108 063d bfbc b4bd b5f1 d9bd 0c86 82be
00000360: f002 f9bd b1ad 37be 36d4 16be 943a b43d
00000370: 8ccb 32bc a879 9dbd ddfd 9ebb 46ed 113d
00000380: 51f6 2a3d 8cea c2bc e953 93be 7d3a 273d
00000390: b09b e5bd 5017 d83c 1f84 543c ec40 003e
000003a0: 0b60 403e ebb8 90bd 550f debc c54c afbc
000003b0: c7cb 503e d3f3 d3bd 65b0 233e 05b1 d83c
000003c0: 13f2 d6bc 35d5 c13c 3019 e5bd d370 13bd
000003d0: acbf 8dbd baac f0bd 7b34 ca3d dcdb 243d
000003e0: 2424 363d b17a 0abd b89a 60bd 58c1 02be
000003f0: 1391 b33d b66d 9c3d 876d be3d dc52 1dbe

network_body._body_endoder.seq_layers.2.bias f4 [128]
-0.038081888 -0.0066655218 -0.022137512 -0.010109037 -0.0063474467 -0.01824873 -0.0033748213 -0.04829307
-0.04798439 -0.070613526 -0.054478496 -0.00039568444 0.019294612 0.011292128 -0.078597 -0.02344098
-0.04140509 -0.029931862 0.016820783 -0.034890186 0.029972646 0.04867168 -0.03149698 -0.013219113
0.013763816 0.017924536 -0.040533468 -0.02104801 -0.029619638 -0.023543764 0.017877158 -0.062023938
-0.043557644 -0.06497 -0.01282087 -0.055222925 -0.059532836 0.0073658414 -0.034711305 0.011674006
-0.070025265 0.039741848 -0.00781698 -0.03379824 -0.052587327 0.0008130593 -0.029328693 -0.015254665
-0.026295256 0.020189404 0.044691343 -0.07448372 -0.07000474 0.012391117 0.009515498 0.018264176
-0.011496581 -0.029924093 -0.023147285 -0.013791425 -0.047071397 0.031327683 -0.031954926 -0.017038038
-0.086717576 -0.041937664 -0.0056290613 0.015271924 -0.0034376245 -0.017965022 -0.028691478 -0.02535933
-0.01523196 0.0031902378 -0.040415324 -0.035412043 -0.04798955 -0.0017728047 -0.0034987195 0.025709221
-0.036643453 -0.040332515 -0.056922346 -0.06684098 0.058258288 0.02116373 0.0043524923 -0.0039838403
-0.0018956194 -0.017658478 -0.015464927 0.015412366 -0.04762275 0.042340033 -0.025079975 0.0018629193
-0.013144884 -0.017820781 -0.021296466 0.007496349 -0.07559428 -0.011209841 0.00492559 -0.02846331
-0.032425847 -0.055840332 -0.01726127 -0.015051453 0.035593357 0.016780887 -0.028933171 -0.008884448
-0.02251086 -0.053340867 -0.027076956 -0.04227082 -0.03062658 -0.05240428 -0.040003665 -0.015182661
0.0016753895 0.002939493 0.0048056142 -0.03728117 -0.011860765 0.015406892 0.036194894 -0.026401214
00000000: c1fb 1bbd 736a dabb ba59 b5bc 60a0 25bc
00000010: 3efe cfbb 5c7e 95bc 1b2c 5dbb f4ce 45bd
00000020: 488b 44bd d39d 90bd d824 5fbd de73 cfb9
00000030: bc0f 9e3c 9e02 393c 77f7 a0bd 4c07 c0bc
00000040: 6298 29bd aa33 f5bc bdcb 893c 03e9 0ebd
00000050: 3289 f53c f55b 473d fa02 01bd fb94 58bc
00000060: a181 613c 7ad6 923c 6c06 26bd e06c acbc
00000070: e2a4 f2bc dade c0bc 1e73 923c d00c 7ebd
00000080: 8069 32bd fe0e 85bd a00e 52bc 6f31 62bd
00000090: b4d8 73bd 285d f13b 712d 0ebd 5444 3f3c
000000a0: 6869 8fbd 59c8 223d ca12 00bc 0670 0abd
000000b0: cf65 57bd 7c23 553a ba42 f0bc b4ee 79bc
000000c0: 2669 d7bc 4064 a53c 450e 373d ec8a 98bd
000000d0: a55e 8fbd 1d04 4b3c e4e6 1b3c c19e 953c
000000e0: 285c 3cbc 5f23 f5bc 609f bdbc 6ef5 61bc
000000f0: f0cd 40bd 7551 003d 2be3 02bd 5b93 8bbc
00000100: fc98 b1bd d4c6 2bbd fd73 b8bb 1837 7a3c
00000110: c549 61bb 622b 93bc 640a ebbc 5fbe cfbc
00000120: 798f 79bc 4f13 513b 8a8a 25bd 380c 11bd
00000130: b190 44bd 745d e8ba c64a 65bb 259c d23c
00000140: 7217 16bd b533 25bd 6827 69bd ece3 88bd
00000150: 3ea0 6e3d 8f5f ad3c 5a9f 8e3b e08a 82bb
00000160: 6f76 f8ba 83a8 90bc 9b60 7dbc 2684 7c3c
00000170: 1310 43bd be6c 2d3d 8574 cdbc 332d f43a
00000180: a45d 57bc e3fc 91bc ed75 aebc efa3 f53b
00000190: 2dd1 9abd 7ba9 37bc d866 a13b e32b e9bc
000001a0: f7d0 04bd d5b8 64bd 8267 8dbc 5f9a 76bc
000001b0: 57ca 113d 1278 893c 4205 edbc 1390 11bc
000001c0: b268 b8bc f47b 5abd 7ed0 ddbc 2b24 2dbd
000001d0: 98e4 fabc dfa5 56bd e2da 23bd b2c0 78bc
000001e0: be98 db3a 82a4 403b 6a78 9d3b 24b4 18bd
000001f0: a753 42bc 306d 7c3c 1941 143d 5c47 d8bc

action_model._continuous_distribution.mu.weight f4 [1, 128]
-0.014556193 -0.012184899 0.014608335 0.012789231 0.02004696 0.015361349 -0.015989484 -0.0066520493
0.051417533 0.00012719877 -0.0027137357 0.010803038 0.0062683467 0.019812739 -0.0028315268 -0.0037012242
-0.015762918 -0.006174283 0.0041155755 0.03860961 0.069746695 0.011425651 0.0031062874 0.0418022
-0.016356373 0.079507 -0.056254245 0.036111537 0.043680727 0.036864217 -0.04143399 0.009428471
0.016865434 -0.011814063 0.022260334 0.0096466355 0.0023297304 -0.00331407 0.016078256 0.0008174142
0.011810197 0.030742336 0.02399862 -0.025569875 0.011018881 -0.062957406 0.0028879114 0.0547103
-0.003932198 -0.024319025 0.017469868 -0.006566015 0.055756077 0.008564826 0.008776752 -0.040611114
-0.045171678 0.024841042 -0.02538154 -0.0063774073 -0.001213095 0.034887794 0.023829635 -0.03340604
0.0052570384 -0.00015277285 0.04848824 0.023983276 0.013147107 -0.013858153 -0.013600659 -0.022488253
-0.022846457 0.021993276 0.05457258 0.0035049608 -0.038068898 0.03919102 -0.025730697 0.02210062
0.00026989586 0.007491998 -0.010749676 -0.00650048 0.014769114 0.041499343 -0.017270586 -0.046193715
-0.0032627163 0.023118684 -0.007846029 0.037162326 -0.06791409 0.033659887 -0.018341972 -0.0020301829
-0.0037455088 0.04432752 -0.02067145 0.0065845116 0.0029190143 0.004634247 -0.025817964 0.040187515
0.021712167 -0.0012286615 0.02795231 -0.032769635 0.00026901122 -0.06122934 0.014656351 -0.0414505
-0.006515913 0.0015240217 -0.021061325 -0.022421613 -0.018530764 -0.0072864178 0.035283893 0.021705713
0.054090157 0.037200034 0.015569602 -0.0124422135 -0.07763938 -0.0015417024 0.051307023 -0.0050373552
00000000: 197d 6ebc 2ca3 47bc cc57 6f3c ec89 513c
00000010: 8639 a43c 2bae 7b3c 61fc 82bc 6ff9 d9bb
00000020: 319b 523d a960 0539 eed8 31bb 3aff 303c
00000030: b466 cd3b 534e a23c 2391 39bb 3d90 72bb
00000040: 3c21 81bc a451 cabb f3db 863b 1c25 1e3d
00000050: 5bd7 8e3d a732 3b3c db92 4b3b c938 2b3d
00000060: cdfd 85bc 91d4 a23d da6a 66bd b1e9 133d
00000070: 90ea 323d effe 163d b0b6 29bd e079 1a3c
00000080: 6129 8a3c c68f 41bc 4e5b b63c ec0c 1e3c
00000090: 64ae 183b de30 59bb 8cb6 833c bd47 563a
000000a0: 8e7f 413c 5ad7 fb3c c198 c43c ea77 d1bc
000000b0: 8988 343c d0ef 80bd 1d43 3d3b e817 603d
000000c0: abd9 80bb b138 c7bc f81c 8f3c ba27 d7bb
000000d0: 7c60 643d 7c53 0c3c 5ecc 0f3c d757 26bd
000000e0: f005 39bd 717f cb3c f3ec cfbc 92f9 d0bb
000000f0: b700 9fba 81e6 0e3d 5e36 c33c c6d4 08bd
00000100: 3c43 ac3b a631 20b9 9b9b 463d 9378 c43c
00000110: f766 573c 4e0d 63bc 4cd5 5ebc 4939 b8bc
00000120: 7e28 bbbc 3e2b b43c 7f87 5f3d 7cb3 653b
00000130: 22ee 1bbd c386 203d 2fc9 d2bc 5c0c b53c
00000140: cf80 8d39 6f7f f53b 691f 30bc fb01 d5bb
00000150: 27fa 713c 37fb 293d 0b7b 8dbc 9f35 3dbd
00000160: 4cd3 55bb 6563 bd3c a18c 00bc 8637 183d
00000170: 8b16 8bbd f3de 093d e741 96bc d10c 05bb
00000180: 3677 75bb c690 353d 2c57 a9bc e3c2 d73b
00000190: ef4c 3f3b e2da 973b 3280 d3bc aa9b 243d
000001a0: b7dd b13c 0a0b a1ba 3efc e43c 7439 06bd
000001b0: 130a 8d39 9ecb 7abd 3121 703c 00c8 29bd
000001c0: 7183 d5bb afc1 c73a cd88 acbc 88ad b7bc
000001d0: d4cd 97bc e7c2 eebb d885 103d 2ed0 b13c
000001e0: a48d 5d3d 105f 183d a517 7f3c 6dda 4bbc
000001f0: 6501 9fbd f312 caba 5027 523d 6610 a5bb

action_model._discrete_distribution.branches.0.weight f4 [4, 128]
-0.0460837 -0.013106563 -0.084607564 0.06802401 0.039965153 -0.06176096 -0.09801559 -0.15158224
0.031008318 -0.030811626 -0.0566875 -0.057444632 -0.058455355 -0.041962128 -0.07105511 -0.0003720385
-0.02389712 -0.05517952 -0.057080757 0.054453105 0.08438264 -0.0025458778 0.0015199962 -0.0690184
-0.12758298 0.051839866 0.026384518 0.010922761 -0.052852854 -0.0864269 0.0279116 -0.040811535
0.039474487 -0.029221956 -0.014370222 0.08561006 -0.038967863 0.005723054 -0.053213265 0.007949489
-0.069729954 -0.110878006 0.037177954 0.07767173 -0.017889746 -0.08645178 0.13657135 0.03533264
-0.05673816 0.051072203 -0.009525624 -0.0059440504 0.03558652 0.06677139 0.08687807 -0.037409693
-0.017332466 0.08286083 0.03168173 -0.011875682 -0.07859593 0.018547613 -0.04907125 0.012210702
-0.009260748 -0.013088106 0.03864188 -0.016713394 0.0331321 -0.1358054 -0.031280752 -0.006266113
0.009292498 -0.019964077 0.08728786 -0.06303054 -0.0499001 0.067332245 -0.025869079 0.059391815
-0.048671998 0.04542867 -0.006603585 0.039864853 -0.060704824 0.07701966 -0.03342995 0.13983063
-0.22080101 -0.066039704 -0.03849009 0.027077112 -0.0072168517 0.09825038 -0.039606117 -0.11652067
-0.0026018328 -0.036890287 -0.041581593 0.035231337 -0.06295873 0.00973938 -0.07442715 -0.033418413
0.08194931 0.03675052 -0.0665473 -0.04568192 -0.0644497 0.050864 0.024633868 0.033133116
0.01591657 0.050050795 -0.17937864 -0.07617578 0.014358204 -0.028372806 0.0100059025 0.009849374
0.09156371 -0.07148062 0.06564764 -0.04379376 -0.0020180577 -0.0052747237 0.05481715 0.020804126
-0.077985056 -0.012935528 0.012120413 0.089605734 -0.026260087 0.02539532 -0.01860931 0.028283838
0.036861833 0.00016674695 -0.03248932 0.028152812 0.08094445 -0.03120643 0.026681108 0.1086325
0.02785317 -0.03938509 0.0016148794 0.02518455 -0.11596056 -0.034290187 -0.019381978 -0.03661159
-0.03714863 0.010450442 -0.0017149845 -0.011641567 -0.08090669 -0.034708474 0.020003501 0.088734165
0.054572437 -0.008685715 -0.07017943 0.14894126 0.00032611509 -0.12606713 -0.058496453 -0.033663858
-0.012000816 0.011589465 0.036719117 -0.069913246 -0.009364337 0.028572151 -0.06216056 -0.023397606
-0.061831776 -0.024005992 0.022687655 -0.043860815 -0.0048271227 -0.0090293335 -0.08928516 0.035877172
0.11305501 0.004868193 0.04458767 -0.045591753 0.0026901998 -0.1759263 0.005733823 0.021235378
-0.035714623 -0.024835743 -0.0224078 0.07516527 -0.0047489335 0.015035335 -0.0017725187 0.020392813
-0.0549841 -0.017948562 0.054961067 0.054269277 -0.0086260475 -0.07825778 0.047820017 0.18051009
0.02242209 0.029679418 -0.06135118 0.022810468 -0.053876903 0.017052012 0.038754605 -0.051255047
0.04617023 0.0067503294 0.056525365 -0.1693468 -0.011897284 -0.053916126 -0.07772028 0.049384635
0.0063675838 0.0068278797 -0.026109934 -0.07358781 -0.028442238 -0.07802754 -0.038899295 0.057595424
-0.032479517 -0.010693477 -0.02943736 0.040932417 0.004928636 -0.056675855 0.0045225886 -0.010919989
0.025482971 -0.0077180755 0.04705316 0.02429173 0.007869234 0.032990254 -0.063917756 0.1945557
-0.063657746 0.027134465 0.12778299 -0.02067171 -0.0063412655 -0.02101121 -0.06249945 -0.0038628702
00000000: 43c2 3cbd e9bc 56bc bb46 adbd 2c50 8b3d
00000010: 80b2 233d 0ff9 7cbd 66bc c8bd 6038 1bbe
00000020: 2805 fe3c aa68 fcbc 2731 68bd 104b 6bbd
00000030: e26e 6fbd 7be0 2bbd 5785 91bd 2a0e c3b9
00000040: e5c3 c3bc ec03 62bd 83cd 69bd 380a 5f3d
00000050: ced0 ac3d bed8 26bb 9c3a c73a 8559 8dbd
00000060: 1da5 02be 0a56 543d 5824 d83c 61f5 323c
00000070: 3c7c 58bd 9600 b1bd dea6 e43c ff29 27bd
00000080: 00b0 213d e262 efbc 1471 6bbc 5454 af3d
00000090: c49c 1fbd 7588 bb3b 27f6 59bd 933e 023c
000000a0: 94ce 8ebd 0214 e3bd e947 183d 5b12 9f3d
000000b0: 848d 92bc a10d b1bd 5cd9 0b3e f5b8 103d
000000c0: 4666 68bd 1631 513d 5d11 1cbc 4fc6 c2bb
000000d0: 2cc3 113d 70bf 883d 21ed b13d e83a 19bd
000000e0: d1fc 8dbc f0b2 a93d b4c4 013d 3892 42bc
000000f0: e7f6 a0bd 2af1 973c effe 48bd 650f 483c
00000100: 64ba 17bc 7f6f 56bc f346 1e3d 87ea 88bc
00000110: 86b5 073d 9210 0bbe 3f20 00bd f753 cdbb
00000120: 903f 183c b48b a3bc fac3 b23d 2816 81bd
00000130: 0c64 4cbd 7de5 893d 64eb d3bc d544 733d
00000140: 4a5c 47bd 6a13 3a3d e362 d8bb 5449 233d
00000150: 9fa5 78bd 7cbc 9d3d d8ed 08bd c32f 0f3e
00000160: a919 62be d33f 87bd c9a7 1dbd d2d0 dd3c
00000170: 577b ecbb 7f37 c93d 063a 22bd 64a2 eebd
00000180: 8383 2abb 451a 17bd 7651 2abd bc4e 103d
00000190: 82f0 80bd ec91 1f3c 436d 98bd bfe1 08bd
000001a0: 0ad5 a73d b787 163d f349 88bd f71c 3bbd
000001b0: 34fe 83bd c556 503d f7cc c93c 97b6 073d
000001c0: 7763 823c 1002 4d3d 09af 37be 0c02 9cbd
000001d0: ac3e 6b3c 166e e8bc ccef 233c 455f 213c
000001e0: c185 bb3d 6e64 92bd 4572 863d 1661 33bd
000001f0: 6441 04bb 97d7 acbb f387 603d 6a6d aa3c
00000200: a1b6 9fbd 89ef 53bc b294 463c 3683 b73d
00000210: 651f d7bc d909 d03c 8d72 98bc 82b3 e73c
00000220: 6ffc 163d cbd8 2e39 8513 05bd baa0 e63c
00000230: 34c6 a53d a1a4 ffbc 5792 da3c b77a de3d
00000240: 552c e43c 4352 21bd 5caa d33a d44f ce3c
00000250: bb7c edbd de73 0cbd f4c6 9ebc 09f6 15bd
00000260: 2929 18bd 5538 2b3c 55c9 e0ba 45bc 3ebc
00000270: 68b2 a5bd 792a 0ebd 62de a33c 42ba b53d
00000280: 5987 5f3d 874e 0ebc 3cba 8fbd 0f84 183e
00000290: 6dfa aa39 be17 01be fa99 6fbd 1de3 09bd
000002a0: 129f 44bc bde1 3d3c c966 163d ad2e 8fbd
000002b0: e06c 19bc 2510 ea3c 129c 7ebd 56ac bfbc
000002c0: 5143 7dbd 37a8 c4bc 76db b93c 66a7 33bd
000002d0: d72c 9ebb c5ef 13bc 23db b6bd f1f3 123d
000002e0: 6389 e73d 5d85 9f3b 90a1 363d 6bbe 3abd
000002f0: 104e 303b 0626 34be cbe2 bb3b d1f5 ad3c
00000300: 7f49 12bd 5474 cbbc 9090 b7bc 40f0 993d
00000310: f19c 9bbb c456 763c dc53 e8ba d40e a73c
00000320: 0237 61bd dd08 93bc db1e 613d 7649 5e3d
00000330: 4454 0dbc 9d45 a0bd ecde 433d a3d7 383e
00000340: 88ae b73c 4022 f33c 604b 7bbd 05dd ba3c
00000350: 07ae 5cbd a9b0 8b3c 26bd 1e3d d0f0 51bd
00000360: ff1c 3d3d de31 dd3b 2487 673d 3f69 2dbe
00000370: d3ec 42bc 28d7 5cbd cf2b 9fbd 8b47 4a3d
00000380: 2aa7 d03b 68bc df3b 80e4 d5bc 35b5 96bd
00000390: b2ff e8bc e7cc 9fbd de54 1fbd 2ee9 6b3d
000003a0: 3e09 05bd b133 2fbc 9e26 f1bc c0a8 273d
000003b0: 6580 a13b f124 68bd 3932 943b c1e9 32bc
000003c0: aac1 d03c e9e7 fcbb d0ba 403d 73ff c63c
000003d0: f6ed 003c ca20 073d 50e7 82bd 9c39 473e
000003e0: fe5e 82bd 1949 de3c 8bd9 023e b857 a9bc
000003f0: 64ca cfbb b31f acbc 6cff 7fbd 3528 7dbb

action_model._discrete_distribution.branches.0.bias f4 [4]
-0.05201679 -0.025043217 0.061861217 0.009514882
00000000: 8f0f 55bd 6f27 cdbc 3062 7d3d 4fe4 1b3c
