Assets/Scenes/ML/MoveToGoal.onnx (onnx, 85117 bytes, 12 tensors)

discrete_act_size_vector f4 [1, 2]
000000 00 00 a0 40 00 00 a0 40
       5.0 5.0

network_body._body_endoder.seq_layers.0.weight f4 [128, 6]
000000 22 7a 23 3f 35 a8 85 3f d1 33 82 3e c9 c9 78 be
       0.63858235 1.0441958 0.25430158 -0.24295725
000010 31 0d 04 3f 81 4b b6 be 25 b0 bd 3e 43 e7 cd bc
       0.5158263 -0.3560448 0.3704845 -0.025134688
000020 30 2e 08 3e ea ca 28 3e 5d d4 1b 3f ef b4 f5 3d
       0.13298869 0.16483656 0.60870916 0.11997401
000030 1c 30 1b 3f d9 20 f8 bd 80 cd 67 be bb e7 d3 be
       0.60620284 -0.1211564 -0.22636986 -0.41387734
000040 27 e9 7b bd 7a 0a c2 3e 7b 49 00 3f 34 4f 7c 3e
       -0.06150165 0.37898618 0.5011212 0.24639589
000050 58 e4 a9 be 6f f4 01 3f 58 25 78 3e 58 ff 19 3f
       -0.33182025 0.507636 0.24232996 0.6015525
000060 c6 00 f0 bd 73 7a d9 bd 3b e4 40 bf 5a 16 2f 3f
       -0.117188975 -0.106190585 -0.7534825 0.6839348
000070 c7 29 0d bf 2d bd bf 3e d2 de d9 3e ec 9b 03 3f
       -0.5514187 0.37449017 0.4255281 0.5140979
000080 17 be f1 3e 5a af ef be f0 b5 1e 3c 65 a4 b7 3e
       0.4721534 -0.4681347 0.009686932 0.3586761
000090 5b 05 da bd cb ef a1 bc 72 5f 9e 3e 2f 70 49 3f
       -0.10645553 -0.019767663 0.30932194 0.78686804
0000a0 6e 67 0c 3f 66 71 40 3f 5c b7 b4 3e 9e bf ab bd
       0.5484532 0.7517303 0.35296142 -0.083861575
0000b0 97 c8 f5 3e bf 59 59 3e 2a 05 0a 3c 89 c2 c4 be
       0.480046 0.21225642 0.008424083 -0.3842967
0000c0 6d 7d 5b 3e da 1e 22 be 4e 56 72 be b0 79 39 3e
       0.21434565 -0.15832081 -0.23665735 0.18112826
0000d0 78 48 86 be 81 0f 0c 3f dd 1f 49 bf 38 02 07 3f
       -0.26227164 0.5471116 -0.78564245 0.5273776
0000e0 b0 25 a3 bd 03 7b a6 be d2 3a 50 be 34 4e 6c 3e
       -0.07966173 -0.32515725 -0.20334938 0.23076707
0000f0 25 3c 9e be b8 0f a2 be 53 64 98 bd ce db 49 3e
       -0.30905262 -0.31652617 -0.0744101 0.19712755
000100 36 22 bb bd de 3c a1 3d b1 87 3b bf 4b c9 c3 3e
       -0.091373846 0.078729376 -0.73253924 0.38239512
000110 85 d0 9e 3e b1 b5 b2 3e 29 c6 bd bd 12 53 0f 3f
       0.31018463 0.34904245 -0.09266312 0.5598613
000120 5e 32 02 bf 66 29 ca be 59 8d 26 be f3 b4 e2 3e
       -0.50858104 -0.3948471 -0.16264857 0.44278678
000130 3c db 32 3f 1f 9d f3 3b 54 be 8e bd 3c 5a 2e 3f
       0.69865775 0.007434502 -0.06969896 0.68106437
000140 91 92 cc be 66 4e fd be be 0c 6a bf 25 e5 05 be
       -0.3995557 -0.49473876 -0.91425693 -0.13075693
000150 1f cb 95 3e fc da 98 be f8 d5 6a be 86 86 00 bc
       0.29256532 -0.29854572 -0.22933185 -0.007844573
000160 41 06 05 3f 66 3b 09 3c 81 a7 a5 3d 7c 57 33 3f
       0.5196267 0.008375978 0.080885895 0.70055366
000170 8b 47 85 bf f3 57 52 ba dc 75 90 3d 34 9a 0c bd
       -1.0412458 -0.000802397 0.0705373 -0.034326747
000180 b1 0b fe be 8c 06 6b 3f d6 18 86 be 95 5f 44 be
       -0.49618295 0.91806865 -0.26190823 -0.19177087
000190 4b dd 6c bf ff dc 54 3d a6 03 bf 3d 03 66 46 be
       -0.92525166 0.05196857 0.09326868 -0.19374852
0001a0 5f 57 ea 3e a0 c4 ad 3e 17 95 9b bc 37 4a 1c 3f
       0.45769784 0.33939075 -0.01899199 0.6105074
0001b0 be e7 2a be 3b 3a 84 be f4 cd 73 be 83 8a 66 bf
       -0.16689965 -0.25825676 -0.23809034 -0.900551
0001c0 e3 b3 e8 3c 43 61 d3 3e 7a d2 a1 3f 9d c4 75 3c
       0.02840609 0.41285142 1.2642357 0.01500049
0001d0 5e 5a 8f 3d 91 c6 42 be bd 2b 60 bf 94 fe 22 3e
       0.06999658 -0.1902106 -0.8756674 0.15917426
0001e0 e8 bc 63 be e8 8f ab be 87 67 3b 3e d8 11 7c be
       -0.22240031 -0.3350823 0.18301211 -0.24616182
0001f0 b8 0b 2b 3d d2 17 27 3f 89 c2 86 3e 97 ec eb be
       0.041759223 0.6527072 0.26320294 -0.4607894
000200 72 94 2a 3f b6 f5 9f bf 42 7f 5e bf 74 c7 cc be
       0.6663276 -1.249686 -0.8691293 -0.3999592
000210 73 de 82 3f 4e ed 35 bd a5 0d 3b be c0 7b 19 bf
       1.0224136 -0.044415765 -0.18266924 -0.5995445
000220 68 2a d2 3d e3 4f 1a bf f9 76 a5 3e 2c b7 4f bf
       0.102619946 -0.6027815 0.3231733 -0.81138873
000230 d1 45 1a 3d ec d8 d6 3d 52 97 9b 3d b8 62 06 3e
       0.03766424 0.10490593 0.075972214 0.13123596
000240 98 d7 47 3f dd db 2d bf aa 94 01 3f ab 52 05 bf
       0.78063345 -0.6791361 0.5061747 -0.52079266
000250 7a 12 5f 3e 67 1c 60 bc 11 eb 09 be 57 72 ad bb
       0.21784392 -0.013678647 -0.13468577 -0.0052931714
000260 05 2d 2d 3d ce 38 22 bd dd c2 e6 3e 5a 4f 3f bf
       0.042279262 -0.039604954 0.45070544 -0.74730456
000270 ad 86 98 be ea ae 7d bf a4 72 2e 3f 6d df f8 be
       -0.2979025 -0.9909502 0.6814368 -0.4860796
000280 82 02 51 be 93 1c 57 3f 0e f9 7e be 13 b9 36 3f
       -0.20411113 0.84027976 -0.24899694 0.7137615
000290 6b f5 88 3e 37 23 75 3e 31 40 b4 be 99 2a 2f be
       0.2674974 0.23939215 -0.35205224 -0.17106093
0002a0 fa 59 af bc ba 7f 98 3c 32 36 a5 bd 77 7b 8a 3e
       -0.021405209 0.018615592 -0.080669776 0.2704732
0002b0 8f 9f a0 3e 06 5a 23 be 84 da e7 be 5d fc cb 3e
       0.31371734 -0.1595231 -0.45283902 0.39840975
0002c0 d1 18 63 3d b5 2f 77 bd 06 dc e0 bd 95 58 21 bf
       0.05544359 -0.06034823 -0.10979466 -0.6302579
0002d0 2e 61 ad 3e 36 d0 ae 3d f5 be 1f 3f 91 b1 81 3f
       0.33863205 0.08535807 0.6240075 1.0132314
0002e0 df 8e af 3e 7f 90 47 be a0 43 0c 3f 48 12 ec bd
       0.3428869 -0.19488715 0.5479069 -0.11526924
0002f0 a4 c9 db 3e ca b8 ec bd 56 7f ff bd 72 b9 6f be
       0.42927277 -0.11558683 -0.12475459 -0.23410586
000300 a7 d8 08 be de f1 93 3e cc 4b a5 3e 3a 3d 8a 3d
       -0.13363896 0.28895468 0.3228439 0.06749959
000310 38 59 14 bf d4 71 32 3f 2b a2 21 3f 69 a6 e9 bd
       -0.57948637 0.6970494 0.63138074 -0.11408693
000320 46 7f 64 3e be 0b 5f be 0f 71 1f bf c9 49 d2 3e
       0.22314176 -0.21781823 -0.6228189 0.4107192
000330 64 ca c3 3e 9a 31 0d 3d fe 1b be 3e 5c 72 20 3f
       0.3824035 0.03447113 0.3713073 0.626745
000340 52 eb 12 be b7 f5 2f bf d0 d6 02 3f 07 a0 4f be
       -0.1434758 -0.68734306 0.5110903 -0.2027589
000350 61 09 aa 3e 2b 52 b6 be aa bf 47 be f8 a0 13 3f
       0.3321028 -0.35609564 -0.19506708 0.57667494
000360 46 95 25 bf 16 39 1e 3e 39 9f 16 bf 60 d3 11 3f
       -0.646809 0.15451464 -0.58836704 0.5696316
000370 9a 75 28 3b 12 ca ad 3e 28 a3 75 3e bb 8b 08 3f
       0.0025704862 0.3394323 0.2398802 0.5333821
000380 52 e6 f1 be 38 86 17 bf 50 48 ce 3d ed 7a 05 3e
       -0.47246033 -0.59189177 0.10072386 0.13035174
000390 c6 34 17 3f c3 a0 aa bd ad b3 88 be 7f a9 60 be
       0.590649 -0.08331444 -0.26699582 -0.21939658
0003a0 d6 0e 9c 3e b8 9c 34 bf ec 22 53 bf 1f c9 26 3e
       0.3048007 -0.70551634 -0.8247516 0.16287659
0003b0 75 18 70 3e 4b 75 a0 3c 25 da 08 be a8 9d 2a bf
       0.2344683 0.01958718 -0.13364466 -0.66646814
0003c0 6d 29 68 3f c6 2c 73 3e f8 76 4b be 42 c2 15 bf
       0.9068821 0.23747548 -0.19869602 -0.5849954
0003d0 50 b8 11 bc 11 a0 81 bd 11 92 01 be 30 c4 86 bf
       -0.008894041 -0.06329358 -0.12653376 -1.0528622
0003e0 62 9b 0e 3e 6f 0d 00 3f 09 f6 1f 3f 74 4a b0 3d
       0.13926461 0.500205 0.62484795 0.08607951
0003f0 90 26 07 3f d4 cf 09 bd 41 01 30 be 25 98 eb 3b
       0.52793217 -0.033645466 -0.17187978 0.007189768

network_body._body_endoder.seq_layers.0.bias f4 [128]
000000 fe 80 2c 3c b0 c4 68 3c 12 95 4a 3d cf 28 05 3c
       0.010528801 0.01420705 0.04945857 0.008127405
000010 18 d7 12 3c d3 54 04 3c 57 b6 14 bd 8d 61 0f 3c
       0.008962415 0.008076864 -0.036306705 0.008751285
000020 d8 fa d7 bc c8 f4 c2 bc b4 95 d6 bb b6 35 87 bb
       -0.026364729 -0.023798361 -0.0065486077 -0.004126276
000030 34 10 3a bd 12 0d c8 bb 12 ab 0a bd dc d6 e0 bc
       -0.04542561 -0.0061050737 -0.03385455 -0.027446203
000040 db 43 0e 3c 85 bf 3a bd 70 2d da 3c 96 be da bc
       0.00868317 -0.045592804 0.026632994 -0.026702207
000050 be 6f 04 3c 88 f9 eb 3c 17 e2 17 3d ef ee a6 3b
       0.008083282 0.02880551 0.03708085 0.005094401
000060 9d e7 02 3c 04 8a 0b bc 7d 43 a7 bc 9b 56 47 3b
       0.007989791 -0.008516792 -0.020417923 0.003041661
000070 d1 46 58 3a 6a c2 34 bc a6 1d bb bc 8d 4a 1f 3c
       0.00082502986 -0.01103268 -0.022841286 0.009722364
000080 7b 20 9e bb 28 83 f2 b8 7e 2e c8 3b 32 7d 67 bb
       -0.0048256493 -0.00011563889 0.006109058 -0.0035322425
000090 11 17 c9 3c e8 49 42 bc 28 eb 57 3d 32 4d 0f 3d
       0.024547132 -0.011858441 0.052714497 0.03498573
0000a0 f7 7f 44 3d d4 7f 0e bb b5 09 11 3b 32 37 2a bd
       0.0479736 -0.0021743672 0.002213103 -0.041556545
0000b0 41 17 9f 3c 2c de 78 bc b3 ee b9 bc c7 90 8e bc
       0.019420268 -0.015189689 -0.022696828 -0.01740302
0000c0 b1 dc ef bb 82 ef 91 bc 8e e8 10 bd f6 b0 1c bd
       -0.0073200096 -0.017814402 -0.03537803 -0.0382547
0000d0 37 af 03 3b 69 33 3c bc 91 8f 23 bd b4 c8 a6 3c
       0.002009345 -0.0114868665 -0.039931837 0.020359375
0000e0 67 e4 a3 3c 7d a8 d5 bb d9 ec 01 bd 5d 2e e5 bb
       0.020006372 -0.0065203295 -0.031720016 -0.0069940523
0000f0 cd eb eb bc 4e 68 8f bc 57 a6 79 bb e5 dd 31 bd
       -0.028798962 -0.017505791 -0.003809353 -0.043424506
000100 93 07 b5 3b da bd ae 3b 77 f0 44 bc 81 8e ce bc
       0.0055245846 0.0053326907 -0.012020222 -0.025214436
000110 e1 83 20 3d d7 ac cf 3c a3 f6 b0 3c 93 ef 31 bc
       0.03918827 0.025350971 0.02160198 -0.010860342
000120 a8 33 18 bd b9 61 d6 3c 05 ab 02 bd 70 f7 77 3c
       -0.03715864 0.026169645 -0.03190138 0.015134677
000130 1a 98 87 bd 13 b3 6d 3b 34 72 32 bb 5b be 9d 3c
       -0.06620808 0.0036270067 -0.0027228715 0.019255808
000140 1f 8f f2 3a bd f2 e3 3c 2d 8e cc 3b ec 9e 6e ba
       0.0018505788 0.027825708 0.0062425346 -0.00091026607
000150 e5 b2 6d bc 18 b2 55 3c b1 e8 0c bd 38 9f bb bc
       -0.014507984 0.013042949 -0.0344016 -0.02290307
000160 2b 79 b7 3c f8 b3 cd bc 1a 80 91 bc f3 6c fd 3a
       0.022396645 -0.02511023 -0.017761279 0.0019334838
000170 38 25 c1 3b 1e 13 ec 3c ce 7e 9c 3d 0b 9d 81 3d
       0.0058943294 0.02881771 0.076413736 0.06328782
000180 96 cb eb 3c c1 d6 0f bd db 52 d0 3c 4c 48 f8 bc
       0.0287836 -0.035116915 0.025430134 -0.030307911
000190 42 69 79 3c 0a 1e 5b 3d 93 8f 13 3c bd c2 cd 3a
       0.015222849 0.053495444 0.009006399 0.0015698295
0001a0 88 cc 98 bc e2 41 00 bd 35 95 74 ba e7 da ed bc
       -0.018652216 -0.03131283 -0.0009330095 -0.029035045
0001b0 a0 09 19 bd c6 c5 29 3c 6f 68 f4 bb d5 05 8a bc
       -0.037362695 0.010362094 -0.0074587385 -0.016848484
0001c0 9e 76 a8 bc b7 19 f0 bc 27 2c d1 3c b5 43 36 3d
       -0.020564374 -0.029309137 0.025533749 0.044498164
0001d0 6d f2 76 3d 11 5e 1c 3c d0 9d 80 bc aa 3a 67 3d
       0.06028979 0.009543912 -0.01570025 0.05645243
0001e0 66 88 bb bc d2 fa 0b 3d d2 fc 4d 3d 05 5d e3 bb
       -0.022892188 0.034174748 0.050289936 -0.006938579
0001f0 0f a8 10 3d e5 94 89 b9 53 37 1d 3b e5 5c aa bc
       0.035316523 -0.0002624161 0.0023989275 -0.020796249

network_body._body_endoder.seq_layers.2.weight f4 [128, 128]
000000 a4 d7 25 bd 04 fa 0d be f6 fe 39 3d 96 a2 d6 3d
       -0.040488854 -0.13864905 0.045409165 0.104802296
000010 ca f0 2e 3d 71 76 41 bd 8a e4 55 bd 6b 75 ab bd
       0.042710103 -0.047232095 -0.052219905 -0.08372005
000020 a3 ce 9d 3d 6b d8 2d 3d ff f7 ef bd 7d f9 47 3a
       0.077054285 0.04244272 -0.117172234 0.0007628424
000030 72 9b 63 3d 6f 75 8c 3c 53 c8 3f 3d 8a cb b2 3d
       0.055568166 0.01714584 0.046821903 0.08730228
000040 03 e1 bf bd 10 7c dc 3d c2 67 39 3e 54 75 3a 3e
       -0.093690895 0.107658505 0.18105987 0.1820882
000050 f9 e2 da 3c 47 1f 09 3e 9b c9 90 3d 01 38 c8 3d
       0.026719557 0.13390838 0.07069703 0.09776307
000060 18 cb 87 bc 27 72 37 bd 21 eb 53 bd 27 89 f8 bd
       -0.016576335 -0.0447866 -0.05173791 -0.12135535
000070 c1 e1 6c 3d a8 be 90 bd 84 2b a9 3d 01 5e fd bb
       0.057832483 -0.07067615 0.08260253 -0.0077321534
000080 24 cb 17 be 99 14 2b 3d 2d da c0 3d 4b 60 8d bd
       -0.14823586 0.04176769 0.09416614 -0.06903132
000090 7d d2 6b bd 7c da 21 bd 30 e0 58 3d d6 25 2e 3d
       -0.057573784 -0.039515004 0.052948177 0.042516552
0000a0 1e 06 91 3d 21 e5 47 3c bc 43 a8 3d 48 0a d6 bd
       0.07081245 0.012200625 0.08216044 -0.1045118
0000b0 be 22 b5 bc 6c 19 1c bd 43 b9 36 3e 02 56 05 3e
       -0.022111293 -0.03811018 0.17844109 0.1302109
0000c0 4d e5 58 bd 2a 15 0d 3d 4a f2 66 3d 69 4a 20 3d
       -0.052953053 0.03444401 0.05638341 0.039133463
0000d0 e5 09 5c 3c 5d da 0f be 9a cf 81 bd 2b 20 84 37
       0.013430093 -0.14048143 -0.06338425 1.5750606e-05
0000e0 86 fe 9d 3d 95 dc 8c bd 4f 89 e2 bd 1a 55 f5 3d
       0.07714562 -0.0687801 -0.11061346 0.119791225
0000f0 63 69 85 bd 5f a6 7e bd 80 bc 82 bb 57 d6 02 3c
       -0.065142415 -0.062170383 -0.003989756 0.007985673
000100 75 47 0a 3e 7c 21 23 be e9 1c 85 be 6f 83 9b 3d
       0.13503821 -0.15930742 -0.2599862 0.07593428
000110 eb 03 d9 3c f0 56 96 3c 45 d2 ba 3d 3e b0 fd 3c
       0.026491126 0.018352002 0.09122137 0.030967828
000120 56 c3 17 3e 70 4c 61 3d 07 a0 24 be f5 3d 05 3d
       0.14820608 0.055004537 -0.1607667 0.03252979
000130 f3 07 a5 bd 4b 34 ec 3c c9 36 45 bd c4 67 d0 bc
       -0.08058157 0.028833529 -0.04814795 -0.025440104
000140 fb f6 0c 3e bc 54 1e 3d 46 2e ec 3d 51 4c 36 be
       0.1376609 0.038655028 0.115322635 -0.1780255
000150 ea 69 ed 3d 03 0e 05 be 05 b1 f3 bc d2 01 60 bd
       0.11592467 -0.12993626 -0.029747495 -0.054689236
000160 9f ab 2d be 10 2b 0f bc 35 c5 a2 3d 92 6d ec bc
       -0.1696 -0.008738294 0.079477705 -0.028860841
000170 05 2f 15 be 43 23 5e bd cc 94 2a bd 9c ed f0 3d
       -0.14568718 -0.054232847 -0.04164581 0.117640704
000180 ef 41 20 3d 02 8a 52 3e 35 1f 89 bc 97 80 e3 3c
       0.03912538 0.20560458 -0.016738513 0.027771277
000190 23 b0 be 3d 2a 57 8b 3c 45 95 56 3d 4f eb f6 bd
       0.09310939 0.017009337 0.05238845 -0.120566
0001a0 fa c3 02 bd 8b 0a 06 3d 86 74 66 3c f2 e6 89 bd
       -0.03192518 0.0327249 0.014065867 -0.067335024
0001b0 df 05 2c bd b5 61 b9 bd d1 71 e4 bd 57 e2 c6 bc
       -0.041997787 -0.09051839 -0.11154521 -0.02427785
0001c0 9a 4c 57 bc a3 3e 43 3d 1e 2e ba 3c f9 30 3f bd
       -0.013140822 0.047667157 0.022727069 -0.046677563
0001d0 8e 7e 85 3c 83 3c 1a bd c9 47 43 3d 55 80 c9 3d
       0.016295698 -0.037655365 0.04767588 0.098389305
0001e0 8a 50 79 3d e0 cd 97 3d 89 d5 37 3c 8f 66 78 bc
       0.060867824 0.074123144 0.011220344 -0.015161171
0001f0 d3 2a 1a 3e 92 16 a0 3d 1e 5e e0 bd b3 84 de 3c
       0.15055399 0.07816805 -0.109554514 0.027162885
000200 94 61 fb bd 3c 7d b2 3d 04 cd 77 3c fa 63 a1 3b
       -0.12274471 0.08715293 0.015124563 0.004925248
000210 74 13 a8 bd 11 3c 99 3d eb 5e 25 3b 00 b9 52 be
       -0.082068354 0.0748216 0.0025233577 -0.20578384
000220 4a 55 75 3d 77 f7 87 3c 38 e4 c0 bd bf f0 b5 bd
       0.05989579 0.016597493 -0.09418529 -0.08883809
000230 03 9e 89 bd 79 31 93 bd 6a 73 56 bd c1 ee c2 3d
       -0.067195915 -0.071871705 -0.05235616 0.09518195
000240 90 33 ef bc 7f 17 15 3e 5d 86 10 3e aa 9d f8 bd
       -0.029199392 0.14559744 0.14113756 -0.12139447
000250 ea 46 9a bd e1 b2 ae 3d f7 ef 30 bd ed ea 94 bd
       -0.07533057 0.08530212 -0.0431976 -0.07271371
000260 c3 6f b6 bd 06 49 2d 3d 56 f2 91 3e ab c8 7a bd
       -0.089080356 0.04230597 0.285052 -0.06122653
000270 b9 95 ca bc 64 97 0d bd a5 22 b6 3d f2 b2 38 be
       -0.024729596 -0.034568205 0.08893327 -0.18037012
000280 d6 e1 65 bd ac 51 c8 3c 2a 48 ad bd 93 d2 f9 3c
       -0.056123577 0.024453007 -0.0846103 0.030495917
000290 7c 59 71 3d 0a 9c 22 be 29 2b ed bd aa ba f7 3c
       0.05892323 -0.15879837 -0.11580498 0.030240376
0002a0 b6 97 39 3d a2 b6 da bd 21 4c 28 3e 5d 11 be bd
       0.0453107 -0.10679366 0.16435291 -0.092806555
0002b0 bf b1 d2 bd 65 07 44 bd e4 83 8b 3d 6c f6 e9 bc
       -0.102878086 -0.047858614 0.068122655 -0.028559886
0002c0 49 fb eb 3c 0b fd 09 3e 09 2f d1 3b d8 12 ca bd
       0.028806346 0.13475434 0.006383781 -0.098668754
0002d0 2e 41 11 bd 10 94 22 be fa 82 48 3c 10 08 81 bd
       -0.03546255 -0.15876794 0.0122382585 -0.06300366
0002e0 46 9a 18 bc 6f 05 e7 bd 93 13 1b be 5c 92 bc bd
       -0.009314125 -0.11280333 -0.15144186 -0.09207603
0002f0 a3 f4 1d bd 61 96 42 bc d1 bb 1e be a6 ad 95 3c
       -0.038563382 -0.011876673 -0.15501334 0.018271279
000300 03 e1 90 be 14 a7 16 bd ba a2 51 3d 7e 94 14 be
       -0.2829667 -0.036780432 0.05118058 -0.1450977
000310 54 51 dd bd 07 85 35 3d e0 25 75 be 55 0d c2 3d
       -0.10806528 0.044316318 -0.2394023 0.09475199
000320 f5 b2 2c be 60 67 f6 bb 80 1f 8c bd 37 66 11 3e
       -0.16865142 -0.0075196475 -0.06841946 0.14199148
000330 7d 58 16 3e fc d2 e9 3d 57 13 98 3d 0a 20 b7 bd
       0.14682193 0.11417195 0.07425564 -0.08941658
000340 c4 56 9a 3c 80 0f 0e 3d 6d 91 19 be 04 ee f3 bc
       0.018840201 0.03468275 -0.14996882 -0.02977658
000350 99 63 da 3d 56 02 95 bc e1 ac 5f bd 6b be a2 bc
       0.10663528 -0.01818959 -0.05460823 -0.019866189
000360 6c fa a6 bd c1 c7 c0 bd 14 2c 14 3d 3b e1 77 3d
       -0.08153233 -0.094131 0.03617485 0.06051753
000370 1f ed 06 bd 03 99 e4 3c f9 b8 0d bb e6 70 4d be
       -0.03294098 0.027904993 -0.0021625145 -0.20062599
000380 32 cb 6e bc 70 e5 8d bd 61 80 07 be fc ae 17 bc
       -0.014574813 -0.06928527 -0.13232566 -0.009258028
000390 4c 76 7b 3d cd a1 cc bd 0c 05 47 bd e3 1a bb 3c
       0.061392114 -0.099917985 -0.048588797 0.022839969
0003a0 1f d6 a6 bd 05 28 e1 3d 8f 10 20 bd 8a 79 50 bd
       -0.08146309 0.10993961 -0.03907829 -0.05089716
0003b0 a5 ba 29 bd 0c fa c1 bb 33 29 b7 3d bf a8 2f 3d
       -0.041437764 -0.0059197005 0.08943405 0.04288554
0003c0 e6 00 d0 ba 2e 3f 00 be c2 68 c9 3d db 7e 1d 3d
       -0.0015869408 -0.12524101 0.09834434 0.038451057
0003d0 74 45 a2 bd cc a6 aa be b7 9a 8d 3d 73 d0 f3 bc
       -0.079234034 -0.3333038 0.06914275 -0.029762482
0003e0 22 b5 28 be 0b 3c e4 bd 11 73 02 bd d3 26 18 be
       -0.16475347 -0.11144265 -0.031848017 -0.1485856
0003f0 91 e6 3d bd aa b7 a4 3c db 45 05 3e da aa b0 bd
       -0.046362463 0.02010711 0.13014929 -0.08626337

network_body._body_endoder.seq_layers.2.bias f4 [128]
000000 71 c3 00 3c d2 0e 81 3c 0a ee eb 3c 7a b4 13 bc
       0.007859097 0.015754137 0.02880003 -0.009015197
000010 f2 42 00 bc d1 29 21 3c f0 98 dc bc 8c 59 12 3c
       -0.007828461 0.00983663 -0.026928395 0.008932482
000020 49 0a 42 bc c8 3e 1f 3c eb 93 1a 3d 94 48 d1 bc
       -0.0118432725 0.009719558 0.03773872 -0.025547303
000030 b3 a1 44 3c 8e 9a d1 39 ca b4 54 3c 5b 35 1f bb
       0.012001443 0.0003997874 0.012982557 -0.0024293277
000040 aa 89 1d bc 5a 42 f8 bb 7e 7d b9 bc a3 9b cb 3b
       -0.009615341 -0.007576269 -0.022642847 0.0062136217
000050 3d 69 27 3d 75 6d de bc 70 2c e7 3b 32 4b 37 bc
       0.040871847 -0.027151803 0.007054858 -0.011187362
000060 af 88 30 bc 4d 2a 45 bc ec 8c 8f bc 7b 5a 26 3d
       -0.010774775 -0.012034011 -0.017523251 0.040613633
000070 5a 99 6c 3c 47 5a b1 3c 41 32 92 bc 29 0f 87 3c
       0.014440859 0.021649493 -0.017846229 0.016486721
000080 df 63 5f 3b 10 d2 2c bd 30 92 b8 3c ce 2a ab 3c
       0.0034086627 -0.04219252 0.022530645 0.020894434
000090 6c dc 9e 3c 7a 7b a3 3c fd a5 ba 3c 83 fc a8 3c
       0.019392215 0.01995634 0.022784228 0.02062822
0000a0 7a 5a db 3c 6c 73 43 3c e8 4d 27 3c 4b d9 a8 bb
       0.026776541 0.011929374 0.010211445 -0.0051528565
0000b0 d8 bd 2a 3d b1 dc 0a 3d 26 ae cc 39 dc e6 7c 3b
       0.041684955 0.033901874 0.00039039663 0.0038589751
0000c0 01 cc ac bc d6 14 33 bc c2 ce 36 3a a7 29 10 3c
       -0.02109337 -0.010930261 0.00069735583 0.008798993
0000d0 79 7b d0 bc d6 91 3e bd c3 08 95 bc c5 e4 c7 bb
       -0.025449501 -0.0465258 -0.018192654 -0.0061002695
0000e0 25 3c a5 bc 68 d0 c3 3c e2 6f a0 bc 8e 9b 9b bc
       -0.02017028 0.023903087 -0.0195846 -0.018995073
0000f0 7f 15 41 bd df 9d e5 bb a0 97 c7 3c 4c b7 75 bc
       -0.04713964 -0.007007345 0.024364293 -0.014997315
000100 bc 8b 84 3b a7 85 ec 3a 84 c3 3a 3b b4 26 1b 3d
       0.004044978 0.0018045203 0.0028497884 0.037878707
000110 b7 39 db 3c 03 bc 10 3c 4b 80 8a 3c 25 97 69 bc
       0.026760919 0.008833888 0.016906878 -0.014257227
000120 91 89 94 3b dd 9c 60 3c 4f 34 27 3d 3a a1 cf bc
       0.0045330008 0.013709274 0.04082137 -0.025345434
000130 ca 2b 9c bc df e0 13 3d 63 46 84 3c 83 35 f6 3c
       -0.019063849 0.036103126 0.016146844 0.030054813
000140 6e 76 f4 3c a7 7f b5 3a 4a ab 8c bc 4c 6b 98 3b
       0.029841628 0.0013847247 -0.01717152 0.0046514627
000150 cd 57 98 bc 65 42 70 bc ad db 1e bb 58 30 0c bc
       -0.018596554 -0.014664267 -0.0024239824 -0.008556448
000160 01 7e 26 bc a8 1d 19 3d 72 b3 e8 3c ca 87 5b ba
       -0.010161878 0.037381798 0.028405879 -0.0008374421
000170 fd cf 81 bc 80 49 36 bc 1e 2d b8 bc 8e f8 66 bc
       -0.015846247 -0.011125922 -0.022482451 -0.014097346
000180 21 2a 39 3c c8 d4 ca bc 79 b4 43 bd ff 73 ad 3b
       0.011301548 -0.024759665 -0.047779534 0.005293369
000190 64 99 55 bc 54 cb c6 bc 29 97 8b 3b 1d 69 c0 3b
       -0.013037059 -0.024266876 0.004259963 0.0058719055
0001a0 ae fb 1f bc e0 1f 37 3c f8 45 f2 3b 59 dd 92 3c
       -0.009764595 0.011177033 0.007393595 0.017927812
0001b0 f8 14 8a 3b 57 0f 89 bc 9a 3e 25 bd 93 7d d8 bc
       0.0042139255 -0.016730947 -0.040342905 -0.026427066
0001c0 4a 41 91 bb 99 79 d3 3c a3 43 19 bc b4 d3 a4 3c
       -0.004432832 0.025814818 -0.009354505 0.02012048
0001d0 ff c3 e3 3b c6 75 60 bc 96 78 99 bc c6 94 04 3b
       0.006950855 -0.013699954 -0.018734258 0.0020230277
0001e0 88 9f 08 bc e0 30 64 bd 7c c5 80 bb f6 12 94 3c
       -0.008338816 -0.055710673 -0.003929792 0.018075448
0001f0 73 8d ef 3c 40 68 3a bc 32 b9 38 3c 16 7d 00 bc
       0.029242253 -0.011377394 0.011274623 -0.007842323

action_model._continuous_distribution.log_sigma f4 [1, 2]
000000 b9 8b a0 bd 0f b3 54 3d
       -0.0783915 0.051928576

action_model._continuous_distribution.mu.weight f4 [2, 128]
000000 13 2d dd bc 52 41 e6 bc c8 38 12 3c cc 0f 51 bc
       -0.026999032 -0.028107319 0.0089246705 -0.012760114
000010 97 b4 38 3b 31 52 8b 3d 6d e9 a1 3b 5d 5c 2f bd
       0.0028183812 0.06802786 0.0049411566 -0.042812694
000020 c6 ab e7 3c 63 f9 28 bd 66 0c 84 3d 0d a4 8f 3c
       0.02828015 -0.04125346 0.06447677 0.01753428
000030 d6 1b bf 3c 13 08 30 3d 34 4e 0f 3d ad 44 ca bc
       0.023328703 0.04297645 0.03498669 -0.02469095
000040 35 3b 00 3c 04 ea 84 bd 27 32 90 3c e8 91 b1 3c
       0.007826616 -0.064899474 0.01760204 0.021676019
000050 e2 22 1f 3c f7 30 28 3d a9 64 58 bd 65 85 f4 3c
       0.009712907 0.04106232 -0.052830372 0.029848764
000060 6a 31 50 bc 7a 4e 44 bd 2f a5 70 3d 3c 9a a1 bc
       -0.012707094 -0.047926404 0.05875128 -0.019726865
000070 9b 99 b2 bc 22 e3 92 bd 0e 83 dd 3c 48 f8 6b bd
       -0.02180176 -0.071722284 0.02704003 -0.057609826
000080 5d 2d 0f bc 96 01 60 3b c8 cb d3 3b 64 4c f6 bc
       -0.008738843 0.0034180633 0.0064635016 -0.030065723
000090 e6 e3 da bc d5 46 3d bd d4 e0 36 3d 10 8c 12 3d
       -0.026719999 -0.04621013 0.044648007 0.035778105
0000a0 47 47 1c bd cd df d0 bc df cf b9 bc 83 32 3a 3b
       -0.038153913 -0.025497342 -0.022682128 0.0028411455
0000b0 6e d6 1c bb 01 16 6a bc 18 b1 da 3c 90 f5 49 3d
       -0.002393152 -0.014287473 0.026695773 0.049306452
0000c0 be 2e e9 3c 7b 58 1d bd 03 bd 0e 3d f6 96 70 3d
       0.028464671 -0.03841446 0.034848224 0.058737718
0000d0 07 ce 8b 3c cf 40 68 3b ee aa 80 bd 72 ea e5 3c
       0.017066015 0.003543902 -0.06282602 0.028065894
0000e0 9b 56 d3 bc c4 65 90 3c b6 a0 33 3c 1f 36 6b bc
       -0.025798133 0.01762665 0.010963609 -0.014356165
0000f0 76 dc 6f bc 06 3f 7d bb 93 b7 50 3c 50 17 1e 3d
       -0.014639964 -0.0038642301 0.01273908 0.03859645
000100 6b 14 51 3c 7c 69 9e bc d0 14 93 bd 10 24 0e 3d
       0.012761216 -0.019337408 -0.07181704 0.03470236
000110 6b eb ce bb 6e 82 85 3d 4e 1d 93 bd 8c ef 05 bd
       -0.006314685 0.06519018 -0.07183324 -0.032699153
000120 ee 12 04 bc 00 6a 62 3d d5 35 86 3c 3c 1e b3 3c
       -0.008061154 0.05527687 0.016383091 0.021865003
000130 c8 af 24 bd 63 64 0c 3d 11 fd a9 3b 3c fd 29 bd
       -0.0402067 0.034275424 0.0051876386 -0.04150127
000140 e5 fe 1c bb ba bc 75 3d 25 1c 1d 3d 91 0b 2b ba
       -0.002395564 0.059994437 0.03835692 -0.0006524856
000150 4d 2c 88 3d d7 d3 7c 3d ef b3 ba bb bb 20 9f 3c
       0.06649075 0.061725464 -0.0056977193 0.019424787
000160 98 c9 01 3c 57 9a 8d bd 23 f5 b8 bc 5c 9c 4e 3b
       0.007921599 -0.069142036 -0.022577828 0.0031526303
000170 d4 c2 a5 bb 43 01 a5 bb 84 34 95 3b a5 91 59 3d
       -0.0050586257 -0.005035551 0.0045533795 0.053117413
000180 d9 54 42 3d 05 88 8d bc 9c 96 fc 3c 6a 9b aa 3d
       0.0474442 -0.017276773 0.030833535 0.08330424
000190 d2 40 64 3d 35 f9 01 3d c3 f2 bb bc 59 b9 10 ba
       0.05572588 0.031731803 -0.022942906 -0.0005520783
0001a0 f4 fb f4 bb 31 25 ba 3d 22 c0 00 3d c0 64 8d bc
       -0.007476324 0.09089125 0.031433232 -0.017259955
0001b0 dd 8b 87 bd fe 8f 83 bc 65 cd 96 3b b5 33 13 3c
       -0.06618474 -0.016059872 0.0046021217 0.008984496
0001c0 6d 37 04 ba 54 8b 4a bc 7e 19 c9 3c d8 f4 b6 b8
       -0.00050436595 -0.01236232 0.024548288 -8.724042e-05
0001d0 02 a9 14 3d 2d 11 67 3c 24 ea c5 3c 25 88 22 3b
       0.03629399 0.014103216 0.024159499 0.0024800387
0001e0 4b 23 71 3d 74 f6 91 3b 1e 64 50 bd e7 6e 73 3d
       0.05887155 0.0044544283 -0.05087673 0.059431937
0001f0 9b 64 2f bc 90 e1 64 bd 8f 92 a2 3c b2 d7 af 3c
       -0.010705139 -0.055879176 0.019845275 0.021465156
000200 ad 4b 6d bc 75 fa 65 3d 16 c2 3c 3d 9d 70 50 bd
       -0.014483375 0.056147058 0.046083532 -0.050888646
000210 d2 71 dd 3c e7 4c 1f 3d 3c 54 c4 bc 93 0a 95 3c
       0.027031813 0.0388917 -0.023965947 0.018193519
000220 58 b9 02 bd 55 75 f1 3b 3a ea 39 3d 29 82 24 bd
       -0.03191504 0.0073687234 0.04538939 -0.040163193
000230 fd 18 85 bd 77 06 3c 3b 81 14 2d 3d 99 51 00 bd
       -0.06498907 0.0028690377 0.042255882 -0.031327818
000240 ba 33 a2 bd 8f d2 b0 bc fd 64 47 bd f6 8e cf ba
       -0.07920022 -0.021584777 -0.048680294 -0.0015835452
000250 1d 47 b0 3d 20 ac 18 bc 99 f3 16 bd ea a5 ac bc
       0.08607314 -0.009318382 -0.036853407 -0.021075208
000260 77 57 45 bd ae 7a 63 bd 43 cd 5e bd 4f e9 4d 3d
       -0.048179116 -0.05553692 -0.05439497 0.05027133
000270 bb 1e 0b 3d ed d7 3f bc 1a 29 ff bc fe 94 2d 3d
       0.033964854 -0.011709196 -0.031147528 0.04237842
000280 39 84 41 bc 87 89 c3 bc 83 88 20 3d ab 72 29 3d
       -0.0118113095 -0.02386929 0.039192688 0.04136912
000290 df f0 f3 3c 11 2b 15 bd ec 9b 8c bd 7c 43 db 3c
       0.029777942 -0.036418024 -0.06865677 0.026765577
0002a0 5e 1e 4b 3d 57 d2 64 3d c5 db 2e 3b a3 9f a1 3c
       0.049589507 0.05586466 0.0026681286 0.019729441
0002b0 3a 12 6f 3d 12 92 54 3d 5c 4c 1c bd 00 a9 1d 3d
       0.05836699 0.051897116 -0.03815876 0.03849125
0002c0 cf ab 15 bd aa e1 11 bd 5c 8c 90 bd 2a 34 a3 bb
       -0.036540803 -0.0356156 -0.070580214 -0.0049805837
0002d0 43 ac 9c bc df ca d0 bb 8a c5 93 bc a8 42 76 3c
       -0.01912511 -0.0063718404 -0.01803853 0.0150305405
0002e0 ba 25 81 bd 19 56 56 3d ba 18 32 bd 47 40 cb bc
       -0.06306024 0.052328203 -0.043480612 -0.024810923
0002f0 c8 f3 c5 bc e9 0d dc bb 23 56 9e bc 90 58 0c bd
       -0.024164096 -0.0067155254 -0.019328183 -0.034264147
000300 8a 62 b2 3c 4b 35 14 3d 8f 30 03 3c 30 60 3c 3d
       0.021775503 0.036183637 0.008007183 0.04599017
000310 99 f9 d2 3c 61 34 e0 bc bf bb 50 3b 0c d7 be ba
       0.025753783 -0.027368726 0.0031850187 -0.0014559939
000320 e4 18 7b bd 4b 22 9d bc 2a 2f 90 3c 6f 3d 17 bd
       -0.061303034 -0.019181391 0.017600615 -0.036923822
000330 13 9a 92 bc 29 00 8d 3d cd 68 8c 3c 9e 6a 13 3d
       -0.017895734 0.06884796 0.017139817 0.03599035
000340 00 73 89 3d 12 ad 8b bd d4 46 a2 bb f2 d5 70 bd
       0.06711388 -0.0682012 -0.004952291 -0.058797784
000350 43 0b 43 bd 1c 04 e6 3a 76 5f 57 bd 24 00 01 39
       -0.047618162 0.0017548832 -0.052581273 0.00012302451
000360 b7 c9 fe bc 0a 6a df 3c 7e 83 29 3d a0 4d 08 3d
       -0.031102045 0.027272243 0.041385166 0.033277154
000370 50 c8 ad bc 17 66 66 3b aa c6 42 bd 02 57 b1 bc
       -0.02121368 0.0035156065 -0.047552742 -0.021647934
000380 80 61 d5 b9 b8 7b 5a bc 29 e2 1d bd fc bb 91 bb
       -0.0004069917 -0.013335161 -0.03854576 -0.0044474583
000390 9a 04 25 bb fc ab cd 3c f4 7a 6a bc ff d1 41 bd
       -0.0025179745 0.025106423 -0.014311541 -0.04731941
0003a0 79 19 37 bd de 32 ba bb aa f8 94 bd d3 65 f7 bc
       -0.044702027 -0.0056823334 -0.072739914 -0.03019992
0003b0 a4 e5 9a 3c 41 7e 3e bc bc 11 90 bc 60 ab 24 bd
       0.01890833 -0.011626781 -0.017586581 -0.0402025
0003c0 7f 55 34 bc 96 5d 3a 3d 99 b5 23 3c c4 75 77 bd
       -0.011006712 0.045499407 0.009992027 -0.060415044
0003d0 c4 39 07 bd 05 1b 8a bd 63 ca 52 bd d3 87 96 3c
       -0.033014074 -0.06743435 -0.051462542 0.018375313
0003e0 69 3d 9f bc 06 50 d1 bb 7a 8d c2 bc 5f 68 a7 bc
       -0.019438462 -0.0063877134 -0.023749102 -0.02043551
0003f0 8a 93 a6 3d 85 7d 80 bc 4a 84 4c 3c be 14 52 bd
       0.081336096 -0.015684852 0.012482712 -0.051289313

action_model._continuous_distribution.mu.bias f4 [2]
000000 cd f5 fb bb c8 bb 02 3d
       -0.007689214 0.031917363

action_model._discrete_distribution.branches.0.weight f4 [5, 128]
000000 a7 e7 7b bb 2c 48 0a 3d 87 12 3a bd 71 03 e9 bc
       -0.0038437636 0.033760235 -0.045427825 -0.028444024
000010 78 39 ba 3c d3 1b a6 3c a6 d2 c8 bc 28 84 c7 bc
       0.022732481 0.02027694 -0.024514508 -0.02435501
000020 e7 5d e9 3b f9 57 b9 3c d2 e6 da 3b 2e 1e 25 3c
       0.0071217897 0.022624956 0.006680348 0.010077996
000030 1c e5 7d 3b 8a 76 6a 3c e0 7f f8 bc f4 18 73 bc
       0.0038741296 0.0143104885 -0.030334413 -0.014837492
000040 bb 6d 96 ba 85 ea d5 3b 0a e9 cb b9 af 3a 72 bc
       -0.0011476794 0.006528201 -0.00038892805 -0.014784499
000050 49 aa 3f 3d cb 1a ba bc 6d 30 3a b9 c8 0b c6 39
       0.046793256 -0.022717854 -0.00017756382 0.0003777428
000060 20 58 40 bb 8a f9 50 bc e6 b1 35 bc 88 d8 f9 b9
       -0.0029349402 -0.012754807 -0.011089778 -0.0004765431
000070 60 ee 9a bc 76 60 26 bd a7 20 8f bc 92 d3 75 3c
       -0.018912494 -0.040619336 -0.017471625 0.015004056
000080 f7 51 25 bd fa c9 03 bd 7d 34 6f bd 69 a7 5f bc
       -0.04036137 -0.03217504 -0.058399666 -0.013650754
000090 96 f3 99 bc 56 b5 64 bd f9 fc 08 bd d5 39 d9 3b
       -0.018792909 -0.055836998 -0.03344438 0.0066292086
0000a0 c0 26 6a 3c cc 7d d3 3c 1d 14 1a bd 6a 50 4e bd
       0.014291465 0.02581682 -0.037616838 -0.050369658
0000b0 63 88 d8 3c 06 77 86 3d 88 15 00 bd f0 52 54 3c
       0.026432222 0.06565671 -0.031270534 0.012959227
0000c0 dc ce 59 3b 54 6a b2 bc 73 a0 6d 3a ca d9 70 3c
       0.003323487 -0.021779217 0.00090647413 0.014700362
0000d0 56 16 f3 bc 04 de 7b bc 8a 17 5f bb c9 61 a6 bc
       -0.029673737 -0.015372757 -0.003404113 -0.0203103
0000e0 24 e2 5d bc 18 6a f2 3c f9 09 a9 bc 80 18 6a bc
       -0.013542686 0.029591605 -0.020634638 -0.014288068
0000f0 89 4c ce bc 98 aa ec 3c 49 d6 76 bc e4 1a b6 bc
       -0.02518298 0.02888994 -0.015065738 -0.02222962
000100 47 41 e2 bb 94 7b 25 3c 06 02 c4 bb e0 48 8f b9
       -0.0069047543 0.010100264 -0.0059816865 -0.00027329382
000110 59 2f 9b bd 3a 0d 64 3c 26 a9 2d 3d 1a 87 d8 bc
       -0.0757739 0.013919169 0.04239764 -0.026431609
000120 d8 b5 16 3c e7 3a d8 bc 37 cd 24 bc 52 1e 49 3c
       0.009198628 -0.026395274 -0.010058693 0.012275295
000130 9b 3c 11 3c d1 9f 33 3d 61 6f 4f bc 5b 4f ea 3c
       0.008864547 0.043853585 -0.012660832 0.028602293
000140 47 ec 4c bd 8e fa 55 bc f2 29 de bb 8d d5 22 bd
       -0.05003002 -0.013060225 -0.0067799026 -0.03975444
000150 d1 ab 48 3c 0e 1e 03 3b da 1e 25 bd a9 33 09 bb
       0.0122479955 0.0020006928 -0.040312625 -0.0020935333
000160 96 29 37 bd ff ec 0f 3d e0 94 b4 bc c3 29 22 3d
       -0.044717394 0.035138126 -0.022043645 0.03959061
000170 22 e7 32 bd 28 05 85 bc 67 ff f5 bc 77 29 2b bc
       -0.043677457 -0.01623781 -0.030029012 -0.010446898
000180 b3 77 07 bc 14 98 ef bc d5 ea e2 3c 33 9d 1d bb
       -0.008268285 -0.029247321 0.027699867 -0.0024049997
000190 ad ce 13 3c 24 68 1a 3c 96 c9 15 3d 32 ad 24 3c
       0.009021443 0.009424243 0.0365692 0.010051059
0001a0 3d 52 1b 3d 65 4f 62 3d ba 4a e2 3c d5 c5 3b 3d
       0.037920225 0.055251498 0.027623523 0.045842964
0001b0 f7 56 af 3c 8f d6 6f bc ff 88 05 bd 13 c1 14 3d
       0.021403773 -0.014638557 -0.032601353 0.036316942
0001c0 25 a3 0f bd a8 ac 2f bd 0b cf 36 3c 94 64 0a bd
       -0.035067696 -0.042889267 0.011157761 -0.033787325
0001d0 91 ff a6 bb 04 58 21 3c 16 e4 95 bc f0 b2 39 bb
       -0.005096384 0.009847645 -0.018297236 -0.0028335415
0001e0 78 3e d7 bc d2 bd 36 3b 54 0c f7 3c 36 98 0b bd
       -0.026274905 0.0027884138 0.030157246 -0.034080707
0001f0 84 7b f4 3c 60 20 88 bc 37 17 02 bc 00 41 08 bd
       0.029844053 -0.016617 -0.007940105 -0.033265114
000200 7a a9 f7 ba df 7c 16 bd 65 9d 4f 3d 08 db 1c 3d
       -0.0018895112 -0.03674018 0.050687212 0.038294822
000210 41 0a 9b 3c 41 48 d7 bb 3a 9c f8 3c f4 c2 d5 bc
       0.018925788 -0.0065698926 0.030347932 -0.026093937
000220 fb 44 da bb 2f 36 55 3b 23 f9 43 bd a9 e1 35 3c
       -0.006661055 0.0032533517 -0.047845017 0.011101165
000230 ac 4c ef bb 61 7d 87 bc b2 ad fc 3c 77 23 42 3d
       -0.007302841 -0.016539278 0.030844543 0.047397103
000240 ff c9 95 bc 68 e5 e4 bb f0 ee d6 3c 9c 4c a9 3c
       -0.018284796 -0.006985355 0.026236981 0.020666413
000250 b0 b5 1e bd 58 00 31 3d 75 8d a6 bc 32 33 d7 ba
       -0.03874749 0.04321322 -0.020331124 -0.0016418456
000260 88 57 2a 3c 22 97 b5 bb 61 f0 21 bc a2 9d 36 bd
       0.010396846 -0.005541698 -0.009883971 -0.044583924
000270 ab 98 02 3d e3 55 8f 3d 3f 5b 08 3d 62 7e ca 3c
       0.031883877 0.069988035 0.033290144 0.024718467
000280 c3 e1 63 3d 5f f4 f3 3c 22 e1 40 3d 28 ea 3e bd
       0.055635225 0.029779611 0.047089703 -0.046610028
000290 6e 28 5c bd 87 f3 88 3d 92 84 53 bc 6b fd e3 bc
       -0.053749494 0.06687074 -0.012910025 -0.0278308
0002a0 34 71 8c bc 6e e9 8d 3a 49 58 6c bd c0 c4 68 3d
       -0.017143823 0.0010827014 -0.057701383 0.05682826
0002b0 3f 3f fb bc ab da 78 bd 24 24 47 bb 23 06 05 bd
       -0.030669807 -0.060755413 -0.0030386532 -0.032476556
0002c0 1a 47 95 3a e6 39 cd 3c 57 7f cb bb d3 ae 5f bd
       0.0011388988 0.025052022 -0.0062102485 -0.054610085
0002d0 45 9e 57 3d 8f f1 b9 3c 42 53 de 3c ce bf 1e 3d
       0.052641172 0.022698192 0.02713931 0.038757138
0002e0 39 3d a0 bb 2e 5e 63 bd b8 8e 98 3a 33 72 ba 3c
       -0.004890111 -0.05550974 0.0011639213 0.022759533
0002f0 5d 98 5b 3c 43 e4 09 3a 49 5d 2c 3c 0b 70 42 bc
       0.013403025 0.0005260149 0.010520288 -0.011867533
000300 75 11 cf ba b6 bd f7 3b fc 76 b6 3a 3b ba 94 bc
       -0.0015798049 0.007560457 0.0013920958 -0.018155208
000310 88 77 83 3d ca 84 1b bd 4e bd 3f bd b4 9d 30 3d
       0.06419283 -0.037968434 -0.046811394 0.043119147
000320 38 7c 29 bc cc c5 92 bc 95 d1 cd bc 7e 74 3a bc
       -0.010344557 -0.017916583 -0.02512435 -0.011380313
000330 71 d5 69 bc b4 22 5e bd 3b 59 52 bd ef 7f 7d bd
       -0.01427208 -0.054232314 -0.051354628 -0.061889585
000340 d7 1e 0a 3d e6 eb 3e 3c 17 9c 30 3d 4d 50 5e 3c
       0.033720817 0.011652922 0.04311761 0.01356895
000350 67 60 15 bc d0 49 7a b9 82 10 99 3d d5 51 c4 3c
       -0.009117222 -0.00023869355 0.07473852 0.023964802
000360 53 11 37 3d 8a 04 5e bd f3 48 0f bd ae 3e 2e bb
       0.044694256 -0.054203548 -0.03498168 -0.0026587653
000370 ba 41 90 3d e1 3b c1 bc 07 b6 26 bd 61 be 35 bc
       0.07043786 -0.023588123 -0.04070094 -0.011092753
000380 ea 1d 81 3c 99 30 dd 3c 24 ec 68 bc 88 ac d1 bc
       0.015761334 0.027000712 -0.014216457 -0.025594965
000390 2f 7d 84 bb 9d 94 bc b9 62 73 7b bc 71 d0 12 bd
       -0.0040432434 -0.0003596888 -0.015347334 -0.035843316
0003a0 5d 44 a7 3c 2b b2 2f bd b6 6a 03 bb e5 7c 3a 3d
       0.02041834 -0.042894524 -0.0020052618 0.045529265
0003b0 1b 13 3c bc 34 66 83 bb bb 34 06 3d 23 f5 a6 bc
       -0.0114791645 -0.0040099863 0.03276513 -0.020380562
0003c0 65 9c fc 3c 8f 3d f5 3c 19 25 48 3c 08 4f 3b 3c
       0.030836293 0.02993658 0.012215876 0.011432417
0003d0 ce 7a 9f bc 48 d7 01 bc e0 95 a2 3a a3 f1 4e bc
       -0.019467738 -0.007924862 0.0012404285 -0.012630853
0003e0 ac 15 ea 3c 98 fa 8e bc 13 46 5b 3c 28 7a 4d bb
       0.028574787 -0.017453477 0.013383406 -0.0031353328
0003f0 ff 3f 0d bd 4e f3 31 3d f6 93 29 bd 6c 05 ff 39
       -0.03448486 0.043444924 -0.041400872 0.0004864143

action_model._discrete_distribution.branches.0.bias f4 [5]
000000 04 74 99 3b 72 09 2d 3c e4 ec eb 3b 5a 96 e6 3b
       0.0046830196 0.010561334 0.0071998704 0.0070369663
000010 8f 0c eb bc
       -0.028692512

action_model._discrete_distribution.branches.1.weight f4 [5, 128]
000000 09 10 a5 bc 4d bc 84 bc 69 bc e7 bc e1 71 01 3d
       -0.020149248 -0.01620307 -0.028288083 0.031602744
000010 ac f0 0a 3c 45 95 b3 bc f2 66 bc 3c 61 9e ec bc
       0.008480232 -0.021921763 0.022998307 -0.028884115
000020 20 0f 08 3c 41 c9 31 3d 29 12 99 bc 68 f5 37 3c
       0.008304387 0.04340482 -0.018685417 0.011227943
000030 10 aa 02 3d 2e c5 8f 3c 94 eb 09 bd a8 e0 01 3c
       0.031900465 0.017550077 -0.03367193 0.007927097
000040 42 a0 80 3c 39 7a f3 3c 40 1d 0c 3d c8 db e0 bb
       0.015701417 0.029721366 0.034207582 -0.0068621375
000050 fd 0a 4b bd 70 5d 23 bc cd 1e 8d bc 22 e4 53 3c
       -0.049571026 -0.009971008 -0.017226601 0.012932809
000060 cc 16 1f bc 6f 0c 45 3c a0 20 b6 bc 90 aa ea bc
       -0.009710025 0.01202689 -0.022232354 -0.028645784
000070 d4 83 b3 bb 02 4c e6 bb c9 86 b8 3c 28 0a 03 bc
       -0.0054783616 -0.007028104 0.022525208 -0.007998027
000080 af 33 9f 3a 68 ab 46 bc 0f f6 dd bc 99 75 a4 bc
       0.001214614 -0.012125827 -0.027094869 -0.020075606
000090 97 c5 de bc e5 c4 07 bc 5e 4c f9 3c 43 dc 14 bd
       -0.027193828 -0.008286689 0.030431923 -0.03634287
0000a0 30 43 ca bc 85 e7 22 bc dd b4 a6 bc 49 6d 38 bc
       -0.02469024 -0.009942894 -0.020349914 -0.011256524
0000b0 2c a3 d8 bc c5 a7 08 bc 48 03 0d 3c 76 43 a7 bc
       -0.026444994 -0.008340781 0.008606739 -0.02041791
0000c0 11 d5 e1 3c 2b cb f8 bb 1e f2 fd 3c 15 ab 01 bd
       0.027567418 -0.007592579 0.03099924 -0.031657297
0000d0 42 e8 34 3c 78 da 6e bb 4e 5b 3f 3c 49 9d b8 bb
       0.011041703 -0.0036446135 0.011679484 -0.005633984
0000e0 7e e2 a8 3c 38 ec 17 bd e9 e5 34 3d 41 0a fd 3c
       0.020615812 -0.03709051 0.044164572 0.030888679
0000f0 76 fc 06 bc ca 74 6b 3d 15 73 e0 3c 59 c5 08 3b
       -0.008238902 0.057484426 0.027398625 0.0020869581
000100 52 78 e5 bc 4e 7b 8a bb 11 7a 0f bc 0d fd 3e bd
       -0.028011475 -0.004226125 -0.00875713 -0.046628047
000110 db 60 a3 bc a2 2e 28 bd 46 fe 5b bc b3 7a 6d 3c
       -0.019943645 -0.041060098 -0.013427323 0.014494586
000120 92 93 c9 3c e0 11 69 bd 91 ed 01 bd 58 71 a9 3c
       0.0246065 -0.056901813 -0.0317207 0.02068393
000130 46 52 71 3c 56 ba 07 bd e3 6a cd bc 37 fc 2c bc
       0.014729088 -0.03313669 -0.025075382 -0.01055818
000140 9c b3 03 bd 0f 01 e1 bb f3 d4 cd 3b 22 aa 0a 3c
       -0.03215371 -0.0068665813 0.006281489 0.008463414
000150 ed ac 9c 3c ed 89 50 3c cb 91 2a 3c 88 85 e3 3c
       0.019125426 0.012728197 0.010410736 0.027773634
000160 89 d4 93 3b af c0 90 bb 7f c4 23 bd dd 57 cc 3c
       0.00451142 -0.004417501 -0.039982315 0.02494424
000170 68 98 6a bc b5 91 89 3c d8 d0 f2 3b ca b3 63 bc
       -0.014318563 0.016793111 0.00741015 -0.0138978455
000180 45 fd 39 bc 24 f9 20 3b ec 71 a6 3b ad 4d 03 bd
       -0.011351888 0.0024562562 0.0050794985 -0.0320565
000190 14 aa 1f bc 21 dd 16 3b 54 78 dd 3c 5e 11 1c 3d
       -0.00974514 0.0023019987 0.027034916 0.0381025
0001a0 78 d4 2b 3d eb 48 0b bb c9 6d ef 3c e5 06 45 3d
       0.041950673 -0.002125318 0.029227154 0.04810228
0001b0 f8 7e c6 bc 17 f8 08 3d c4 03 b3 bc 9c 4c e8 3c
       -0.024230465 0.033439722 -0.021852382 0.028356843
0001c0 21 9a c8 38 95 cc dc bc aa 39 1e 3d 13 92 8d 3c
       9.565452e-05 -0.026953021 0.03862921 0.017281568
0001d0 fe 57 b4 3c 3f 49 ef 3c 35 4a 5c 3c 52 bd c5 bb
       0.022014614 0.029209731 0.013445427 -0.0060345316
0001e0 fd 09 49 bc 95 b3 11 3c a5 de f5 3c 18 48 0a bb
       -0.012270448 0.008892913 0.030013392 -0.00211001
0001f0 16 b6 44 bd 2c 64 42 3c 03 f5 05 bd 8b c5 ea 3c
       -0.048025213 0.011864703 -0.032704365 0.028658649
000200 00 b0 7b 3d 7f 21 54 3c 43 17 00 3a 4d eb 28 bd
       0.061447144 0.012947439 0.0004886279 -0.041240025
000210 8f 9e 42 bd 87 eb 55 bd c2 c9 7b bc 95 ba 8d 3c
       -0.047514495 -0.05222657 -0.015367927 0.017300883
000220 f0 c8 f4 bc f4 a2 6e 3c 79 05 af bc 4c fa c0 3b
       -0.02988097 0.014565218 -0.021364914 0.0058892127
000230 ab d1 74 3c b6 91 76 bd d2 6d ba bc 6c 90 34 bd
       0.014942567 -0.060197555 -0.022757445 -0.044083044
000240 82 58 ef 3c fc 24 d2 bb 49 d6 96 bc 4a 44 2a bd
       0.029217009 -0.0064131003 -0.018412726 -0.04156903
000250 00 7e 1f 3d b8 dd 9c bc 69 3b c1 3c da fa ce 3a
       0.038938522 -0.019148692 0.0235879 0.0015791312
000260 7f 7b 0b 3d 79 3b 04 3d 79 24 97 3c ea 40 91 3c
       0.034053322 0.03228328 0.018450009 0.017731149
000270 1c 66 ab 3c 4c ca 3e bc c5 fe 67 bd b1 a0 a0 3c
       0.020922713 -0.011644911 -0.05663945 0.019607874
000280 73 c7 26 bd 64 81 fd ba a7 ca 0f bc d3 27 53 3b
       -0.040717553 -0.001934093 -0.008776343 0.0032219782
000290 58 ae cf bb 24 89 10 bd 71 e9 cb bb 6e 0f 0d bd
       -0.006337922 -0.035287037 -0.0062228967 -0.034438543
0002a0 a5 dc bb bb 59 6a 0a bd 67 e8 15 3d 1b 27 08 bd
       -0.00573309 -0.033792827 0.03659859 -0.03324042
0002b0 bf ae df bc 69 af 9d 3c f0 1f 14 3c e3 e7 ac bb
       -0.027305005 0.019248681 0.009040818 -0.0052766665
0002c0 49 e3 6e 3c 22 5f ba bc 24 44 91 bc d0 64 36 bd
       0.014580556 -0.022750441 -0.017732687 -0.044529736
0002d0 59 35 13 bd 22 3e 02 3c 11 c9 1a bc 6a 6a 21 bd
       -0.03593955 0.007949384 -0.009447352 -0.039408125
0002e0 1d 4c a4 3a 59 17 d9 3b e8 1e 05 3c 1c cd 7f bc
       0.001253489 0.0066250977 0.008125044 -0.015612867
0002f0 3c 98 4c bc c2 2f 2d bd 89 d4 88 3c 98 04 8e 3c
       -0.012487467 -0.042281874 0.016702907 0.017336175
000300 88 c9 12 bd 27 f2 a0 bc 84 3f 02 3c e0 48 d1 bc
       -0.035836726 -0.019646717 0.007949714 -0.025547445
000310 40 ec d3 bb a0 6d 0b bd 64 6c eb ba bb 67 bb bc
       -0.006467372 -0.034040093 -0.001796138 -0.022876611
000320 f0 5d 3c 3c 6d ef 56 bc 71 3e 3e 3d 05 44 8d bc
       0.011497006 -0.013118607 0.046446268 -0.017244348
000330 8d ce d1 3c 01 5b 66 bd 71 6a 5e bc a7 8f d6 bb
       0.025611186 -0.05623913 -0.013575182 -0.0065478864
000340 72 4a 7d bc df 7a 92 bc 4a e3 1d bd 5b 4f 39 bd
       -0.015459644 -0.017880855 -0.038546838 -0.045241695
000350 cc 30 37 bc f2 42 3d bd bd 3f 0a bd 39 60 c1 bc
       -0.011181068 -0.046206422 -0.03375219 -0.023605453
000360 61 57 8b bc 4a 73 ee 39 bc 00 1d 3d 6e 2c d4 bc
       -0.017009439 0.00045480795 0.03833078 -0.025900092
000370 5c b6 ca bc 8b da 4b bd d2 86 ba bd 44 c2 17 bd
       -0.024745159 -0.049768966 -0.09107746 -0.0370505
000380 6d 62 e2 bc b5 5d 1a bd f2 80 58 bb 4d ca f0 3c
       -0.027634824 -0.037687022 -0.0033035842 0.02939334
000390 2b 5c 5c bd d9 5f bd bc fe f1 ce 3c a2 53 70 3c
       -0.053798836 -0.023116993 0.025261875 0.014668377
0003a0 4f 6a e9 bc c1 68 16 bd 69 7f e9 bc cc 50 56 bb
       -0.028493075 -0.036720995 -0.028503137 -0.0032701967
0003b0 20 c6 ab 3b 50 38 3d bd c8 e6 b0 3c 40 4e 0e bc
       0.005242124 -0.046196282 0.02159442 -0.008685648
0003c0 45 45 54 bc b0 90 cc bb 3f 01 a2 bd aa ba a4 3c
       -0.012955968 -0.006242834 -0.07910394 0.02010854
0003d0 bd 7a 06 bd 97 ae b9 bc ce 4f b6 3a e9 1f 7a bd
       -0.032831896 -0.022666259 0.0013909282 -0.06106559
0003e0 47 0e 38 bd 95 75 18 3d 8e d8 de 3b 39 a4 cd bc
       -0.04493549 0.03722151 0.0068007177 -0.025102722
0003f0 bf 0f d2 3c 54 2c 97 ba 58 17 c3 3c 89 06 ab 3c
       0.025642274 -0.0011533597 0.023814842 0.02087714

action_model._discrete_distribution.branches.1.bias f4 [5]
000000 77 59 48 bc f2 e0 6f bc 63 6e 8b 3b f2 a1 0e 3d
       -0.012228361 -0.0146410335 0.0042551025 0.03482241
000010 ed a4 ec bb
       -0.007221809
